model/nmc2lfp/nmc_pretrain_best.pt (torch, 320767 bytes, 20 tensors)

cnn.conv0.weight f4 [8, 4, 3, 1]
00000000: 081b fe3d 3b17 8f3e 7163 eabd 9d78 99be
00000010: 9657 50be 6e7f 97bc 85ee fa3e a5cf 373f
00000020: 564b e53e d749 783d d2bf f2bd 0c63 cdbd
00000030: a2a8 1abf 1798 e0be 7725 d9be 817e 07be
00000040: da3f edbc 1f2b f63c 40a1 1fbf 6e93 f3be
00000050: eeb3 73be 6514 113d b337 9cbe e9b6 d3bc
00000060: 26f6 373d bb14 013e edaf b83e 9ec0 10bf
00000070: a3da f4be f725 bcbe f56f 82be bb1a 293e
00000080: f0bb 63be a74d bbbd ff24 39be 7e3d 89be
00000090: 08a2 91be 20ee d23d 674b a9bc 398b 8d3e
000000a0: 3d35 193e 246d 40bc 389f 3a3d 3115 e5be
000000b0: c90a d3be 89f3 e53d 52a5 e53e 2380 e13e
000000c0: 6ca1 4dbe 0741 a8bd f18c f13d 9cbf cd3e
000000d0: da23 6c3e 7020 203e 8f73 723e a8a4 7bbe
000000e0: f1c7 aa3d cb85 96be ecd3 86be be3d 51be
000000f0: 2517 9d3d beb6 7b3d fe06 67be 22fb 3f3e
00000100: 9e30 853e fdbf 873d 350c c1be f373 97be
00000110: 8663 78bd e976 bd3e 8e6e f4bd deb8 353c
00000120: eb47 0d3e 0050 933e 63b2 a43e ae9a d93e
00000130: df4e 6c3e 1006 9abd d6f8 723f 7df3 8a3f
00000140: cb13 433d 67c3 3f3e cec3 5d3e 6b9a 94be
00000150: e65e f53d 4270 bb3c df49 f33c d9a0 0fbf
00000160: 1587 a8be 6b34 20bf 299a 28be e9e0 6a3d
00000170: e2e2 a13e e77c 643e 086b 3abe 209b d1bd
0.124074996 0.2794741 -0.11444748 -0.29974833 -0.20345911 -0.01849338 0.490101 0.71801215
0.4478404 0.060617294 -0.11852993 -0.10028657 -0.60413563 -0.43866035 -0.42411396 -0.13231851
-0.02896111 0.030049859 -0.6235542 -0.47573417 -0.23799106 0.03541984 -0.30511245 -0.025844054
0.04491248 0.12605564 0.3607172 -0.5654391 -0.47823057 -0.36747715 -0.2547604 0.16514103
-0.22239661 -0.091456704 -0.18080519 -0.26804727 -0.28443933 0.10299325 -0.020665837 0.2764528
0.14961715 -0.011744771 0.045562 -0.4474273 -0.41219166 0.11228091 0.44852692 0.44043073
-0.20081109 -0.08215528 0.117944606 0.4018525 0.23060551 0.15637374 0.23676895 -0.2457453
0.08338917 -0.2939895 -0.2633356 -0.20433709 0.0767043 0.061453573 -0.22561261 0.18748143
0.26013654 0.06628416 -0.37704626 -0.2958065 -0.060641788 0.37004784 -0.11935149 0.011091439
0.13796966 0.28771973 0.32167348 0.42500824 0.23076962 -0.075206876 0.94910944 1.0855557
0.047626298 0.18726884 0.21656725 -0.29024062 0.11980991 0.022880677 0.02969831 -0.5610481
-0.3291556 -0.62579983 -0.16465057 0.057343397 0.3161841 0.22313271 -0.18204892 -0.10234666

cnn.conv0.bias f4 [8]
00000000: 046f 723e 894d 3b3e 1d21 21be e4d6 92be
00000010: ee15 4e3e cfa7 3c3e 4923 77be 038e 80ba
0.23675162 0.18291296 -0.15735288 -0.28679574 0.20125553 0.18423389 -0.24134554 -0.0009807948

cnn.conv1.weight f4 [16, 8, 3, 1]
00000000: 731d 47be dd72 70bb 2068 1dbe f38d 2dbe
00000010: 29d6 d9bc 087a 4f3c de33 abbd 2d0f f83d
00000020: c365 febd bff6 343e bb7f 053e 4add 3abe
00000030: 26b3 a2bd 29df a3bc 9a5e 92b7 9ecf dc3c
00000040: 7d6a 6d3d fa89 2dbc 3b35 d8bd d713 ba3d
00000050: 6244 4dbe 60c7 f7bd 864c 51bd cca2 cbbd
00000060: 07eb 29be 62ea 74be 02f6 f1bb 29a4 f1be
00000070: a78f 65bf 1797 72be 1fb1 ff3e 5561 8c3e
00000080: 89a0 3a3e 958f 77be e6ac 99be a275 163e
00000090: 2798 993e a95c 693e 281a 943e 8997 77bd
000000a0: 58fc 69be 4e38 0ebe 3f75 febc 1638 cebd
000000b0: a845 a5bd 6df4 af3d dcf3 70be 69a5 a0be
000000c0: adbd 3e3d 64db a43e bf11 b23e a1d9 45be
000000d0: 13a5 0b3e 66a5 14be 5101 663d 6688 9abe
000000e0: a8d0 82be 1702 f6bd b036 5b3e 8b12 cf3e
000000f0: 89b4 aebe dd94 88be 9b34 8ebe 652d 98bd
00000100: ad30 b1be bec2 52bd 3641 453e e7ce b93d
00000110: 61e3 923e 99b7 1c3d 008c ccbe b3eb 0d3e
00000120: 38f0 963a 2619 d23c 08df 883e 991c 39be
00000130: 4180 c6be c879 113e 2d90 97bd 07d7 b7bd
00000140: 86b2 f73d bb12 10be 0c42 d53d a59e da3e
00000150: a4c7 0cbe 1496 213e c55b 613e 86ad 333e
00000160: 6523 0ebe b3f2 a83c 3469 78be 222b 1abe
00000170: 681c 06be a642 df3d 62e6 06be 2ea6 04be
00000180: fc13 a43c 8cc5 3b3e 633f 60be 96a8 9fbe
00000190: 79e5 413e 3008 c03e 72fa a6bd bb10 1f3e
000001a0: f9ab 213d d570 0abf 1ad4 8eba d109 34bd
000001b0: 2b24 4cbd 7aec aebd 19c4 153d 3106 603e
000001c0: 04c1 16bc af4c b5bd d3da 5d3e 2f1c 94be
000001d0: 463d 43be af8f 913e bbfa e13d 2f59 0a3d
000001e0: 31b0 3ebe 4361 bc3d 7b15 1ebe 3856 6dbd
000001f0: e842 8cbd 27a1 f7bc a453 123b 6367 2c3e
00000200: eec0 d03c 49cc 343e cc8b f23d 29d4 0abe
00000210: 9f2a a73d ecfb 1dbe 3fc1 c5bd f19d 4b3d
00000220: f5bb 693d 5e39 123e edab 99bd 313b 13bc
00000230: 0427 c43d 0725 4abe a31e 173e 8ed8 2cbe
00000240: b8ee 46be 7440 98be 3076 01bf 6a73 863f
00000250: bd96 55bd 5bf0 8ebf 2961 2c3c f1bf 19bc
00000260: f314 40be 17bc 1d3e f0d9 543f 642d a63f
00000270: 2f58 12be a986 a83d da77 863d 36e4 803d
00000280: 4184 ef3d 328c 9b3d adb8 39be f4f1 353d
00000290: fe24 d53e d759 e33e 25a4 11bc 5bdf 9abe
000002a0: 88cb 06bf 351a d5be 70b3 2cbf d7a2 9b3f
000002b0: 269a 623f 0e2c cdbe 6685 db3d e38f 403d
000002c0: 604e 5cbe 2073 b3bf d55a 12c0 8401 03bd
000002d0: 025d 8c3d 8d61 4b3e 9e82 31bd 08dd e53d
000002e0: ad15 833c 8831 6c3d 0133 98bd b2f5 013e
000002f0: 2172 203e eee8 b03e c65d 083e 9c9a 3cbe
00000300: 828c 103e 139a 1bbe 5642 ab3d cd91 8cbd
00000310: a7b1 c9bd 2c33 163d 3528 d9bd c8a3 403d
00000320: 4c31 243d 8e32 1bbe 4c35 0b3d e00e b23d
00000330: c579 a53d 127e d2bc c65a 2bbe 16e3 00bd
00000340: d030 913d 1789 98bd b6ae 9e3d 9b33 0b3e
00000350: 9548 dabd 28ed 033b 99dc ac3d f00f 833c
00000360: b3af d4bc 3629 e53c 89e8 59be f7e5 403f
00000370: cbb5 483f d1b4 3cbe 3b3f d23e 30bf 9b3d
00000380: f167 903d 637d 41bf 2d86 113e d74b 29bf
00000390: d008 1a3e c1f9 7a3d 9bdb 64be 5057 b13a
000003a0: fc68 0f3e 2c64 363e 9ad2 953e d802 6b3e
000003b0: 4c33 60bd a3bb 05be 0f3f 75bd e2ae ef3d
000003c0: 2c1f 4fbe 310c 913e 6faa 7a3e 0b8f 0b3e
000003d0: e882 09be b992 3ebd f59f bebd 9bbd 883d
000003e0: 4b49 bdbd 9b5f 233e 8998 8ebe 6cfb 073e
000003f0: 62ad 76bd fec0 a53d 3f58 2bbe d5a8 913d
-0.19444828 -0.0036689558 -0.15371752 -0.1694868 -0.026591377 0.012663372 -0.08359502 0.121122696
-0.12421753 0.17672251 0.13037007 -0.18248478 -0.07944326 -0.020003872 -1.7448609e-05 0.026954468
0.057962883 -0.010591978 -0.10557028 0.090858154 -0.20045617 -0.12098575 -0.05109837 -0.099431604
-0.16593562 -0.23917535 -0.0073840627 -0.47195557 -0.8967232 -0.23690449 0.4993982 0.27418008
0.18225302 -0.24175866 -0.30014724 0.14693311 0.29998896 0.22789253 0.28926206 -0.06044725
-0.22850168 -0.13888666 -0.031061767 -0.10069291 -0.080699265 0.085915424 -0.23530525 -0.31376198
0.046567608 0.32198632 0.34779164 -0.193213 0.1363719 -0.1451622 0.0561536 -0.3018219
-0.25549817 -0.12012117 0.2140758 0.40443835 -0.34122112 -0.26676074 -0.2777451 -0.07430533
-0.3460745 -0.051455252 0.19263157 0.090726666 0.286891 0.03826103 -0.39950562 0.13859443
0.0011515683 0.025646757 0.2673266 -0.18077315 -0.38769725 0.14206612 -0.07400546 -0.0897656
0.120945975 -0.14069645 0.10412988 0.4269916 -0.13748032 0.15779907 0.22007664 0.17546663
-0.1388069 0.02062354 -0.24258882 -0.15055516 -0.13096774 0.10901384 -0.13173822 -0.12954018
0.02002906 0.18337077 -0.2189918 -0.31183308 0.18935193 0.37506247 -0.081532374 0.15533726
0.039470647 -0.5407842 -0.0010896951 -0.043954674 -0.04983918 -0.08541198 0.036563966 0.21877362
-0.009201292 -0.08852517 0.21665506 -0.28927752 -0.19066343 0.28429934 0.11034151 0.03377646
-0.18621899 0.09198239 -0.15437882 -0.057943553 -0.06848699 -0.03022821 0.0022327686 0.16836314
0.025482621 0.17656054 0.118430704 -0.13557495 0.08162426 -0.15428132 -0.096559994 0.04971117
0.057064015 0.14279696 -0.07503495 -0.00898628 0.09577754 -0.19740687 0.1475778 -0.16879484
-0.19427001 -0.29736674 -0.50570965 1.0503972 -0.05214571 -1.1167101 0.010521212 -0.009384141
-0.18757991 0.15403782 0.83145046 1.2982602 -0.14291452 0.082288094 0.065658286 0.06293528
0.11695147 0.075950995 -0.18136854 0.044420198 0.41629785 0.4440448 -0.008889233 -0.30248532
-0.52654314 -0.41621557 -0.674613 1.215907 0.8851646 -0.40072674 0.10718803 0.04701222
-0.21514273 -1.4019508 -2.286794 -0.031983867 0.06853677 0.19861431 -0.043337457 0.11223799
0.016001547 0.057664424 -0.07431603 0.12691382 0.15668537 0.3455271 0.13317022 -0.18418354
0.141161 -0.15195493 0.08362262 -0.06863747 -0.098483376 0.036669895 -0.10603372 0.047031194
0.040086076 -0.15156004 0.033986375 0.086942434 0.08079866 -0.02569488 -0.16733846 -0.031466566
0.07089388 -0.07448023 0.07748167 0.13593905 -0.10658375 0.002013037 0.08440513 0.01599881
-0.025962686 0.027973752 -0.21280111 0.753509 0.78402394 -0.18428351 0.41063866 0.076048255
0.07051075 -0.7558195 0.1421134 -0.6613135 0.15042424 0.06127334 -0.22349398 0.001353005
0.14004892 0.1781165 0.2926224 0.22950304 -0.05473642 -0.13059859 -0.05987459 0.11703278
-0.20226735 0.28329614 0.24479078 0.13628785 -0.13428843 -0.046526644 -0.09307853 0.066767894
-0.09242495 0.1595444 -0.2785075 0.13279504 -0.060223944 0.08093451 -0.16732882 0.0711228

cnn.conv1.bias f4 [16]
00000000: 4b66 b2bc 3550 82bd bbd0 92bc 4c14 023e
00000010: 279a 563e 9a30 1cbe ca0f 883e 1442 08bd
00000020: 6726 2fbe ac8c 6bbe 7685 2d3e e4c5 33bd
00000030: 3a92 16be db1b c53e cbcc 483e a16b ed3d
-0.021777293 -0.063629545 -0.017921796 0.12703055 0.20957242 -0.15252915 0.26574546 -0.033266142
-0.17104493 -0.23002881 0.16945443 -0.043889895 -0.14704219 0.38497815 0.19609372 0.11592794

cnn.conv2.weight f4 [64, 16, 3, 1]
00000000: a33c fa3d c550 9fbd 51b0 3a3d 7cf9 9dbd
00000010: 00da d83e 5be5 7abe a19c d03e ca15 0c3d
00000020: 881f 8cbd 76e2 82be 3c9c ca3c 26ba 223e
00000030: 7d70 38be 76fd 153e 742b bb3e e14a 6bbc
00000040: 9bec 333d 854f 0abd 996d 01be 826c 8cbc
00000050: 4abd 18be 134e 8bbd 643a 0d3e 93b6 213e
00000060: 859e ceb9 ef37 8fbd 878c 133e 1e7f 013d
00000070: 6f18 16be 6222 3bbe 139b c7bd 322f 63bd
00000080: 7d5a 5b3d 1208 b53d dd69 34be 0bf8 4b3d
00000090: 5937 3bbe d519 a2be 1ec6 273d 4030 f03d
000000a0: 9a80 0a3f b14a 98bd 3ef1 acbe e1c9 5bbd
000000b0: 20ff 79bd 522d d23d d98d d1bd c1e0 44bf
000000c0: 3ca4 113e 7706 bbbd 3db2 e23c cdf3 2f3e
000000d0: 7686 a2bd 6196 49be 1da7 8f3d 1684 263e
000000e0: 0b94 23be c3e0 1dbe 1e4f 1fbe 85d0 95bd
000000f0: 86a8 afbd eb16 2e3e eac6 b33c 0451 d4bc
00000100: 539f e73d 9092 943d a5f1 f03d f02c a23d
00000110: cfad 41bd 3793 c5bd 763f 47bc 0b8b f13d
00000120: b16b 46bd 1b11 09be 395a 723d 2e75 da3e
00000130: 1952 9b3d 5f3b f7bd b26d 5fbe e4ef 27bc
00000140: 0c3c 4a3d 8d5b 94bd 304c 48be 3bed 84be
00000150: 374a 2ebd 6bc6 993d 4c6d 41be 8ad0 04bf
00000160: cae8 8bbe 3367 b33d e65d 5f3d 95f4 8bbd
00000170: af15 c6be e7e2 3d3e 4ef0 543e bcac 7b3e
00000180: d65d f9bd 7b13 5fbd 264e cbbd 7cbd 133e
00000190: 8239 c33c 1d14 91be ee7d 9d3e d49c abbd
000001a0: 21b3 0dbd 0635 9cbc c004 08bd 631c 32be
000001b0: 38b9 233e 1e3d d33c 7d3c 4c3c 338e 003e
000001c0: df13 953d ea67 a73c 7339 0a3e 1d6a 193e
000001d0: 6943 babd 631f 873d 5f1c c0bd 78c3 e0be
000001e0: c24f 28bd fa5a c9bd e795 013e adae 63be
000001f0: a153 b8be 6cac 153d 80c2 8a3d 729b 90bd
00000200: 1766 fa3c 6557 61be e079 a7bd f886 a4bc
00000210: 2d56 f5bf 673b 403f b839 01bd 5040 553e
00000220: 9b0a d43c c844 b0bd 1036 07bd 2178 a1bd
00000230: 703b 5fbe 9085 573e a078 09be 190a e33d
00000240: a727 ebbd c036 0ebd 8bcc a03d 6f15 c5bd
00000250: 7a44 4b3e 439e 79be 7168 2b3e 559c 07be
00000260: d83b 433e 02ee 1c3e bf30 eabd ca7c 4bbd
00000270: 3b79 b33b 5111 fc3c cab2 9cbc a316 e5bd
00000280: 162d 7b3c 7afe 0a3e a304 4dbe 0266 443e
00000290: abcd a1bd 3d38 d43d f518 19be 7813 0ebd
000002a0: caaf cfbc e999 3f3d 54f2 673d f152 95bd
000002b0: 7260 7cbe 5b7c c63d f7af 183e e4a2 a8bd
000002c0: d19a 383e bdae 90be 3a0a fbbd e523 2e3d
000002d0: 6b9b c5bd db20 7c3e 2e43 a43c ca3b a6bb
000002e0: 4dbc eb3c a4e0 97be fcf8 45bd 80b0 3abe
000002f0: aa65 75bd d808 823e 1d09 b1bc daf2 28be
00000300: b382 cf3d eb2c dbbd e4e6 073d ca3a 973c
00000310: 4371 92bd 004b 383d da32 04be 26a7 063d
00000320: e465 bbbd 2bd6 9cbc 6e53 733c 26e1 f33d
00000330: 09e2 93bd 06d3 b63d 8e94 afbc e663 8cbd
00000340: a5b4 00be 5a9c 07be 3d58 103e 5972 13bd
00000350: 953d ec3b 8e48 203d 5dee c83d 304a fc3d
00000360: 48bd ef3d ed01 dbbd 4771 bdbc 1377 afbd
00000370: 6985 aabd b4e1 063d ce3d 083e 61d7 f0bd
00000380: f0d7 af3d e747 99bd dfcb e7bc 153b e93d
00000390: a1b6 05bd c154 573c e8a2 cebd 2149 fb3d
000003a0: b3d9 98bc 9333 d8bd a343 2b3d 5a04 d4bd
000003b0: eb4e edbd 1e8c 173b 25bc dd3d 8b25 3fbd
000003c0: 7621 8b3d aa04 fe3d e90f c43d d648 adbe
000003d0: 3f34 30bd 9b8e 503d 6e5a 3fbe 7659 2abe
000003e0: 27b4 3fbe b281 983d 8f33 103e cb72 1d3e
000003f0: 4fee 8ebd fc6f 993d 6766 1fbe 7857 cdbd
0.12218597 -0.077790774 0.045578305 -0.07713601 0.4235382 -0.24501555 0.40744498 0.034200467
-0.068419516 -0.255634 0.024732701 0.15891322 -0.18011661 0.14647469 0.3655659 -0.014361114
0.043926816 -0.033767242 -0.12639464 -0.017141584 -0.14915958 -0.06802001 0.13791806 0.15792303
-0.00039409488 -0.0699309 0.14409076 0.03161537 -0.14657758 -0.18274835 -0.09746375 -0.05546493
0.053553093 0.0883943 -0.17618509 0.0497971 -0.18282832 -0.31660333 0.040960424 0.11727953
0.5410248 -0.07436121 -0.33777803 -0.053659324 -0.06103432 0.102625504 -0.102321334 -0.7690545
0.14222807 -0.091320924 0.027672881 0.17182846 -0.07935803 -0.19686271 0.07014296 0.16261324
-0.15974443 -0.15417771 -0.15557525 -0.073151626 -0.08577065 0.1700093 0.021945436 -0.025917538
0.113096856 0.07254517 0.1176484 0.079187274 -0.047284897 -0.0964722 -0.012161126 0.117940985
-0.048442546 -0.13385431 0.059168074 0.42667526 0.07584018 -0.12071871 -0.21819189 -0.0102500655
0.04937367 -0.072440244 -0.19560313 -0.25962242 -0.042551246 0.07508548 -0.1888935 -0.51880705
-0.2732604 0.08759918 0.054532908 -0.0683376 -0.38688418 0.18543588 0.20794794 0.24577612
-0.12176101 -0.054461937 -0.09927015 0.14427751 0.023831133 -0.28335658 0.3076014 -0.08379522
-0.03459466 -0.019068252 -0.033207655 -0.17393641 0.15988624 0.025785979 0.012465593 0.12554245
0.07279181 0.020435292 0.13498478 0.14981885 -0.09094889 0.065977834 -0.09380411 -0.4389913
-0.041091688 -0.098318055 0.1265484 -0.22234602 -0.36001304 0.036541387 0.06775379 -0.07060899
0.030566258 -0.22005995 -0.08177543 -0.02008389 -1.9166924 0.7509064 -0.031549186 0.20825315
0.025883963 -0.08606869 -0.033010542 -0.07884241 -0.21800017 0.21047044 -0.13424921 0.1108591
-0.114821725 -0.034720182 0.078515135 -0.09623229 0.1985034 -0.24376778 0.1673906 -0.1324323
0.19065797 0.15325168 -0.11435079 -0.049679555 0.0054770983 0.030769976 -0.019128222 -0.11185958
0.015330574 0.13573638 -0.200213 0.19179538 -0.07900556 0.10362289 -0.14950927 -0.034686536
-0.025352377 0.04677764 0.056627586 -0.072912104 -0.24646166 0.09691688 0.14910875 -0.08234194
0.18027808 -0.28258315 -0.1225781 0.0425147 -0.09648784 0.24621908 0.020051565 -0.0050730454
0.028776312 -0.29663575 -0.048333153 -0.18231392 -0.059911408 0.25397372 -0.02161079 -0.1649889
0.10132351 -0.10701927 0.03317918 0.01846065 -0.07150509 0.0449934 -0.12910023 0.03287425
-0.091502935 -0.019145092 0.014851434 0.11908178 -0.07220847 0.08926968 -0.021433141 -0.068549916
-0.1256891 -0.13243237 0.1409616 -0.035997722 0.0072094896 0.039131694 0.09811089 0.12318838
0.117060244 -0.10693727 -0.023125304 -0.085676335 -0.08326227 0.03293009 0.13304827 -0.1175983
0.08586109 -0.074844174 -0.028295456 0.11388222 -0.03264487 0.0131427655 -0.10089666 0.122698076
-0.018658495 -0.10556712 0.04181255 -0.103523925 -0.11587318 0.0023124288 0.10826901 -0.046666663
0.067934915 0.12403233 0.09573347 -0.33844632 -0.043018576 0.05091725 -0.1868684 -0.16635689
-0.18721066 0.074466124 0.14082168 0.15375821 -0.069790475 0.074920624 -0.15566407 -0.10026449

cnn.conv2.bias f4 [64]
00000000: d96f 243e 1aaa 82be 9209 b23d 02cf 0a3d
00000010: 147b 0ebe 8c70 863e 1b74 7ebd 5921 9abd
00000020: c0de 80be 0726 0dbe 5544 723d 9429 14be
00000030: 33f1 723d e793 56bd cbce 8c3c 7687 c3bd
00000040: 30b4 493d 8ed0 0b3d 9135 5b3d 4187 70bd
00000050: eac7 13be d161 073e 3aa5 ebbd 3191 ebbd
00000060: 1659 3dbe 2192 50bd 3671 f0bd e50c 863d
00000070: 24bf fc3b ee8a 4ebb 3bea 173e 19d8 5e3d
00000080: 0866 14be ca7a 50bd c513 0fbd 1a83 b6bd
00000090: fc85 4dbd b506 e6bd d066 c7bd dbc8 d63d
000000a0: a742 21be be8b 563e 1226 aa3d 1f7f 9b3d
000000b0: e288 163d 2e04 6f3d f617 88bc 97c6 05be
000000c0: ac94 223d d3b7 14be 6d0e a1bd 7b9c 82bb
000000d0: 07a7 26be bf51 a3bd 6b53 09be b3cf 2fbc
000000e0: 1638 3f3b 72c6 e23b a12b dfbd 0fb1 debd
000000f0: 32da debd 16b4 ccbc a97d adbd a7a1 e2bd
0.16058291 -0.25520402 0.08693232 0.033888824 -0.13914138 0.2625774 -0.062122446 -0.07525892
-0.25169945 -0.13784038 0.059147198 -0.14468986 0.059312057 -0.052387144 0.01718845 -0.095473215
0.049244106 0.03413444 0.05351788 -0.05872274 -0.1443173 0.13220908 -0.11506124 -0.115023024
-0.18491015 -0.05092061 -0.11740343 0.06545428 0.0077132154 -0.0031515914 0.14835446 0.054405306
-0.14492047 -0.05089835 -0.034930963 -0.089117244 -0.050176606 -0.11231748 -0.09736407 0.10487529
-0.15748082 0.20951745 0.083080426 0.07592606 0.036751635 0.058353595 -0.016612988 -0.13064037
0.039692566 -0.14523248 -0.078640796 -0.003985939 -0.16274653 -0.07974576 -0.13410728 -0.010730672
0.0029177717 0.006920629 -0.108969934 -0.10873615 -0.10881461 -0.024988215 -0.084712334 -0.11065989

rnn.0.rnn.weight_ih_l0 f4 [256, 64]
00000000: 9d0e f2be 8126 09bd c0de 31bf 6068 f3be
00000010: 941b d93d f605 97bf 7445 603d 096a 92be
00000020: b070 afbe 2fda ee3d 32b2 3c3e 9916 f4bd
00000030: 8256 eb3d ea9c b43b 2030 80bd b786 353e
00000040: dfb8 e73e 606f 883e af37 bcbe 1a40 a83d
00000050: 58c0 46bd 7f1a c8be 4e13 a1bd 5ac6 d53d
00000060: 457d 87bd 96ae 9f3d 18b9 013d 0578 a63d
00000070: ca21 b3bd 0aa4 153c 74a8 223b 4ff4 f83c
00000080: 428b fdba 510a 7a3d 0a59 bfbd f84c cdbc
00000090: 58b4 4fbe 5c2b 26bd 98c4 ed3d 57c0 b33d
000000a0: 8c5c cabe 40df 44be 91d2 443f b25e aabe
000000b0: bb14 373f cb92 f43e f349 503d 1299 8d3d
000000c0: 9517 823c 942f d73c 9dec b23a d227 76be
000000d0: 6a27 a53c 3aa3 90bd ccea 4fbf d482 ee3d
000000e0: bafc 78be 4c88 7fbd 2ee0 a5be c2ca ebbd
000000f0: 73a1 ee3d e5ba 69bd 942b 5dbd 8820 94bd
00000100: 96ee 4abe 8622 2cbd 267a 53bd bac6 c13e
00000110: 2c7a c6bd 257c c63e d2ed c2bc 24ac 043f
00000120: 6a05 5b3f 5253 f8bd 367f 23bf d2f2 333d
00000130: 50bd 39bd 45b6 b73d 9f1b d4bd b792 d43e
00000140: b480 d0bd ca01 733e ae8e 123f 78d1 98bd
00000150: f73a dcbd eead bbbf ec03 41bd 3f05 913d
00000160: e0da 213d ad4a afbe 374a e63d 35d9 44bf
00000170: 48a0 76bd af54 86bd 2340 833f 6114 883f
00000180: 84ef 3cba 1304 423d 6fa6 b03d c0a3 b8bc
00000190: 5281 ddbe 4808 70bf 8d87 443d 8ff5 e43e
000001a0: a647 09bf e17b 513f 8f72 98be 9b0f 813f
000001b0: b118 12be 61e5 8cbe e29c af3d 2a0a 523d
000001c0: 3a35 22bd 2d16 793d 83b4 4fbd 7105 febe
000001d0: ea51 173d 99d0 d6be c9f4 e43c c0a0 22bb
000001e0: 3125 21bf 2cd3 8e3d e8d0 c8be 2fff 3e3d
000001f0: 3937 aabd c6f1 85bd 10ea edbc 5183 69bb
00000200: 0ec8 333e fc3f b7bd 7f49 203f 51e2 5a3f
00000210: e8ac dabd 3d89 d3bd c95c af3d d9b7 82be
00000220: fa84 0fbf 2510 a9bc 7235 51be 7e06 36bd
00000230: 7e21 d6bd ab18 8a3d cbf5 7cbc cfd0 c5be
00000240: fe5e 63bf 9d7a 8d3f 1fb5 4e3f b445 b2bd
00000250: 3f91 ba3d 41b6 833e 0f28 ca3d 649a a1bd
00000260: 361a b63d 4280 cdbe bbb6 4bbd fe5e b3be
00000270: d23c 703d 122e a33d faa6 043f dfd7 83be
00000280: 2ad4 00bd 917b 503d a8fc 9ebd ca00 c5bd
00000290: 34be 9dbe 7e90 98bd 768d 7cbd c70f a8be
000002a0: 72eb 8bbe da58 c33e 20ae c03b d5fa 1239
000002b0: 834c 7b3e f641 233e fc09 ec3d 2bff ddbb
000002c0: 211a 75bd 4e47 e3bd ea35 63bb 1adf 15be
000002d0: fe32 bfba b4ca 19bf 0f34 b0bc 18a8 8c3d
000002e0: 3026 3e3e 6ae4 c4bd a196 f93e c556 7e3d
000002f0: e16e 86bf 6cff 793d 789d 923c 7222 8b3d
00000300: e8fe 78bd 9673 dd3d 2cbc 08bd 49d2 29be
00000310: 2285 993d 2fdc 64be 54bf 8fbd 92f9 30be
00000320: 6e65 5dbe 8fc8 debd dfb9 a4be ff49 c33d
00000330: 00e8 183d 0ba1 253d a8a9 07bd 40c3 ffbc
00000340: 10d5 c7bd fb68 d43d 26ba e4bd 80ca 9f3c
00000350: 2fbe 2a3d 6748 efbd 3f68 9a3d c40c 833c
00000360: 0db7 4c3d f991 263d 9afc ae3d 84a8 753e
00000370: 6959 c13d b789 debb a6b7 35bf 9752 a7be
00000380: 0f3c 503d f3fc ce3d 1d73 463d f82b 3d3d
00000390: b925 333f b182 02be 2e07 e23d c1e4 453e
000003a0: e58f 5abe a5e4 9f3e 0fcc 41be 10c6 633d
000003b0: 9706 403e 45fa f9bc 5787 2fbc ed7d 9cbd
000003c0: dd08 13bd 606e fb3c cdfa 9d3d 7cbb f93d
000003d0: d77a f2bd fc82 043f aa6f 34be 60a3 b9bc
000003e0: d9d2 183f 5e59 c53d ba3f 71bc ea48 9e3b
000003f0: 021f c8be 70a9 c8bc c046 fcbc dc1d 67bd
-0.47276774 -0.033483986 -0.69480515 -0.4754057 0.10600963 -1.1798694 0.054753736 -0.28596523
-0.3426566 0.11662709 0.18427351 -0.11918373 0.114911094 0.0055118697 -0.06259179 0.17727171
0.45258233 0.26647472 -0.36761233 0.082153514 -0.048523277 -0.39082715 -0.0786501 0.10438223
-0.0661569 0.077969715 0.03167066 0.08128361 -0.08746679 0.009133348 0.0024819644 0.030389933
-0.001934387 0.061044995 -0.09343155 -0.025061116 -0.2028364 -0.040568694 0.11609763 0.0877692
-0.39523733 -0.19225788 0.768838 -0.33275372 0.7151601 0.47768244 0.050851773 0.069139615
0.015880385 0.026267804 0.0013650839 -0.24038628 0.020160396 -0.07062383 -0.81217647 0.11646047
-0.24315158 -0.062385842 -0.32397598 -0.11513282 0.11651888 -0.057063002 -0.053996637 -0.07232767
-0.19817576 -0.04202511 -0.05163016 0.3784693 -0.09691271 0.3876659 -0.023795042 0.51825166
0.85555136 -0.12125267 -0.63865983 0.043932743 -0.045346558 0.08970312 -0.10356831 0.41518185
-0.10180798 0.23731151 0.5724896 -0.07461828 -0.10753434 -1.4662454 -0.04712288 0.07081079
0.039515376 -0.3423666 0.11244624 -0.7689393 -0.06021145 -0.06559121 1.0253948 1.0631219
-0.00072073215 0.047367167 0.08625495 -0.02253902 -0.43262726 -0.93762636 0.047980834 0.44718596
-0.5362495 0.8182965 -0.297749 1.0082887 -0.14267232 -0.27518752 0.08574845 0.051279224
-0.039601542 0.060812164 -0.05070926 -0.49613526 0.036943354 -0.41956022 0.027948754 -0.0024815053
-0.62947375 0.069738716 -0.39221883 0.04663008 -0.08311314 -0.06540255 -0.029042274 -0.003563125
0.17556784 -0.08947751 0.62612146 0.8550158 -0.106775105 -0.103289105 0.08562619 -0.2553089
-0.5606228 -0.020637581 -0.20430544 -0.044439785 -0.10455607 0.06742986 -0.015439461 -0.3863587
-0.8881682 1.1053044 0.8074512 -0.08704701 0.09109735 0.25724986 0.09870922 -0.07890776
0.08891718 -0.40136915 -0.049734812 -0.3503341 0.058651753 0.079677716 0.51817286 -0.25750634
-0.031452335 0.050899092 -0.07763034 -0.09619291 -0.30809176 -0.07449435 -0.061658345 -0.32824537
-0.27328068 0.38153726 0.0058801323 0.00014017087 0.24540906 0.15943131 0.11525342 -0.006774803
-0.05983937 -0.11097585 -0.0034669586 -0.14635888 -0.001458734 -0.60074925 -0.021509198 0.06867999
0.18569255 -0.09613879 0.48747733 0.06209447 -1.0502588 0.061034605 0.017897353 0.06793679
-0.060789973 0.10813062 -0.03338258 -0.16584124 0.07496096 -0.22349618 -0.07018915 -0.17282704
-0.21620724 -0.10878097 -0.32173058 0.09535598 0.037330627 0.040436786 -0.03312078 -0.031221032
-0.09757435 0.10371586 -0.111683175 0.01950574 0.04168528 -0.116837315 0.075394146 0.015997298
0.04997926 0.040666554 0.08544274 0.23990065 0.09440882 -0.006791319 -0.7098335 -0.326802
0.050838526 0.1010684 0.048449624 0.04618451 0.69979435 -0.12745167 0.11036526 0.19325544
-0.21343954 0.3122913 -0.18925498 0.05560881 0.18752514 -0.030514846 -0.01071342 -0.07641206
-0.035897125 0.03069228 0.07713852 0.12193963 -0.11839836 0.51762366 -0.17620721 -0.022660911
0.5969673 0.09636186 -0.014724666 0.0048304694 -0.39086157 -0.024494857 -0.030795455 -0.05642496

rnn.0.rnn.weight_hh_l0 f4 [256, 64]
00000000: a127 573e 7f88 1bbe cfe7 c3bd f5e9 b53d
00000010: 2604 f23d 9017 c43d 05bb cfbd ac14 9fbe
00000020: 0983 a33d 607e cbbd 75f9 3b3e 2007 9d3e
00000030: 69f2 47bd 0a9a 96bc 54d3 883e 2612 773e
00000040: b5ea e6be 57c2 8abd 53ae 71be d02a ad3e
00000050: a316 013f 8e7a e73e 4888 9fbe 0c83 823d
00000060: c3b8 98bd 3495 01bb 55cc 383e 2b27 e5be
00000070: 8a6e 173e 8b7a a1bd 0c7a 13bf 9922 333e
00000080: a421 f33e 909b a53e 7b05 b1be 5e3d 47bc
00000090: 97ee 653e 6080 b8be 2a32 e9bd c753 b1bd
000000a0: 436d 23be 577f 36be 6db6 5abe b260 0c3e
000000b0: 958e 043e 9fbb 953d b813 4cbe 5cf9 173e
000000c0: c674 cabd 03bd e63b 0433 7ebe c3ba 2a3e
000000d0: af93 1a3f ccbb b0be 7949 5fbe 706e a1be
000000e0: 0e3c 033e 3c8c b5bd e515 4cbd fa62 2cbe
000000f0: 8464 c2bd 5960 cb3d 116b 17bf e6a7 dcbe
00000100: 500c 3bbf 4539 d33e ade4 553e ac5e 013e
00000110: dc7e 273e a214 ad3e a2cc 8fbd b3f7 00be
00000120: 7235 c9bd 28dd 41be 4928 b53e fb78 90be
00000130: 48a2 03be 32a4 513e a797 0d3f 456e eebd
00000140: ce12 0c3f b827 33be 1ec9 0ebf c3a6 46bf
00000150: 9ea5 21be b078 593f 17e8 2cbe 9e12 afbe
00000160: c590 0abf 304f b2be 7126 4c3f 9ecf aebe
00000170: 95e1 3f3e e4a8 083e 88a7 173f 8ef4 a6bd
00000180: cd57 95be 1bb1 f9bd a4a3 a63e 0b31 d43d
00000190: faea c1be 6c35 ab3e 2ab3 953e 4eb1 413f
000001a0: ded4 1dbe 3cbf 64bf 75b2 46be ca84 e1be
000001b0: 2dfa 56bf 150f c13d 47ed 303f 7314 903e
000001c0: 9927 e43e 83e8 d9be 8932 5d3f 5deb 24bf
000001d0: d00c dc3e 990a 3ebe a212 03be ba2c b53e
000001e0: b137 afbe c5e7 febe 8ff5 833e a6e5 c7bd
000001f0: 6023 563d 1140 503d 33b9 2dbf 952b 953e
00000200: 1b48 d1bc 0aeb 233e 34c5 f6be 8d47 5fbe
00000210: bd04 833e 2d71 24bf f4e5 15be b003 35be
00000220: 7f62 aebe c49a 2cbe aa7f 193e ed94 0a3d
00000230: 9c85 3d3e 41f6 8b3d 5958 8abe da0e 7abd
00000240: 2e80 ce3d c6c1 40be e7ab b13e f86d 903e
00000250: 3996 b33e 8e44 d73e b0ff f8bd 3cda ffbc
00000260: 7d80 2bbe b54b 19be 5158 aebb e772 aa3d
00000270: e96a 713e 197f 24bd befa d3bd c0c8 da3e
00000280: 265b c6be 5cd2 b5be 6609 3dbf e341 9d3e
00000290: 9151 623d 4567 963e 0931 06bd 4727 113f
000002a0: 9df3 8cbd b2c8 263d 0037 82be f14d 153f
000002b0: 20fe 743c 4fb3 89bd 34db edbe 47d6 e4bd
000002c0: f0b1 a7bd 621d 0bbf c128 b5be 9844 d73d
000002d0: 7306 b5bd 4b12 e8bd a3cc 77be 55bb 703e
000002e0: 986d 31bf a72e ca3e 6ed6 8abd 1d69 94be
000002f0: ec3f 9dbd a33c 2bbf dbcb 7ebe 6631 4e3d
00000300: 337a c1bd c88e 873d 6721 85bd fec9 373d
00000310: 9f60 a4be 9e54 2cbd 46b8 273d abcf 9d3c
00000320: 942f 553e 2550 a239 06c0 a93d 9ba0 90bd
00000330: 3396 093d aa09 4b3e 78e8 503e 7028 c23a
00000340: 54d2 653e 7f18 3a3d e47f f1bd 3dd4 963d
00000350: ac25 efbd 346e 1cbd 89a1 76be 3e36 7b3e
00000360: e33a 0f3e be8f b1bd 51dc 333d c876 a4bd
00000370: 46a1 d03c 5d0d ae3d 62dc 0b3e 22d8 5c3d
00000380: a249 2dbd 51aa b4bc 60f4 b13d 737d cebc
00000390: 0b81 043d 697d 053e 02b7 f83d daf0 29bf
000003a0: 0e31 c0be 71d2 153e 1ee4 503d f35a bc3d
000003b0: e01f e43d 2d04 eebb 5a0f 363e 6118 113c
000003c0: b998 853d be2d 04be 6ecc 6abd 1294 9c3b
000003d0: dcc9 a83e 3eb2 9d3d 793c 713d 4c23 483c
000003e0: 5139 72be f53c 3cbe bec6 5ebe f830 5cbe
000003f0: 2a2f 0b3e dc85 cb3c 7b96 06be 9ab4 c5be
0.21011211 -0.15188788 -0.09565698 0.088825144 0.118171975 0.09574807 -0.10143093 -0.3107046
0.07983977 -0.099362135 0.18356879 0.30669498 -0.048815165 -0.018383998 0.2672373 0.24128017
-0.45100942 -0.06775349 -0.23601656 0.33821726 0.50425166 0.4521069 -0.31158662 0.063726515
-0.074571155 -0.001977277 0.18046696 -0.44756445 0.14788261 -0.07884701 -0.57608104 0.17493667
0.47486603 0.32345247 -0.34574494 -0.012160627 0.22454296 -0.36035442 -0.11386521 -0.086585574
-0.15959649 -0.17822014 -0.21358652 0.13708761 0.12945016 0.073111765 -0.19929397 0.14841217
-0.09885554 0.007041575 -0.24824148 0.16672806 0.603816 -0.34518278 -0.21805371 -0.3152957
0.12815878 -0.08864638 -0.049825568 -0.16834632 -0.09491828 0.09930486 -0.59147745 -0.43096846
-0.7306566 0.4125463 0.20888014 0.1263377 0.16356987 0.33804804 -0.070214525 -0.1259449
-0.09824647 -0.1893202 0.35382298 -0.282173 -0.12854874 0.20472792 0.5530953 -0.11642126
0.54716194 -0.1749562 -0.5577563 -0.7759821 -0.15785834 0.8494978 -0.1688541 -0.3419389
-0.5412715 -0.3482604 0.79746157 -0.34142774 0.18738396 0.13345677 0.5924001 -0.08152114
-0.2916855 -0.12191983 0.32546723 0.10360917 -0.37874585 0.33439195 0.29238254 0.7566117
-0.15413234 -0.893543 -0.19404013 -0.44046623 -0.8397549 0.09426705 0.69112056 0.28140602
0.4456146 -0.42560205 0.86405236 -0.64421636 0.42978525 -0.1855873 -0.12800077 0.35385686
-0.34222177 -0.497862 0.25773284 -0.09760599 0.05227983 0.05084235 -0.67860717 0.29134813
-0.025547078 0.16007629 -0.4819733 -0.21804638 0.25589553 -0.6423519 -0.14638501 -0.17677188
-0.34059522 -0.16855913 0.14990106 0.033833433 0.18507999 0.068340786 -0.2702053 -0.06104932
0.10083042 -0.18823919 0.34701464 0.282089 0.35075548 0.4204449 -0.121581435 -0.031231992
-0.16748233 -0.14970286 -0.0053205867 0.08322697 0.23575939 -0.040160272 -0.1035056 0.42731285
-0.38741416 -0.35512054 -0.73842466 0.3071433 0.05525357 0.29375663 -0.032761607 0.5670056
-0.06882403 0.04071874 -0.25432587 0.58322054 0.014953166 -0.067236535 -0.464563 -0.11173683
-0.08188236 -0.5434171 -0.35382655 0.1051113 -0.08839121 -0.11331614 -0.24199156 0.23508961
-0.6930785 0.39488718 -0.067791805 -0.28986445 -0.07678208 -0.668894 -0.24882452 0.05034008
-0.09447136 0.0661903 -0.065005116 0.04487037 -0.32104966 -0.042072885 0.04094722 0.019264063
0.20818931 0.0003095876 0.08288579 -0.07061883 0.033590507 0.19827905 0.2040118 0.0014813077
0.22443515 0.045433518 -0.11791971 0.073647 -0.11677107 -0.038191035 -0.24085058 0.2453241
0.13987307 -0.08669995 0.043911282 -0.08030468 0.025467526 0.084986426 0.13658288 0.053917058
-0.04230655 -0.02205387 0.08689189 -0.025206303 0.032349627 0.13036121 0.12144281 -0.66383135
-0.37537426 0.14631058 0.0509988 0.09197035 0.11138892 -0.0072636814 0.17779294 0.00885591
0.0652327 -0.12908074 -0.057323866 0.0047783935 0.32966506 0.077000126 0.05889556 0.012215447
-0.23654677 -0.18382628 -0.21755502 -0.21503055 0.1359221 0.024844103 -0.13143341 -0.3861435

rnn.0.rnn.bias_ih_l0 f4 [256]
00000000: 5652 7d3e dcfa cebc bf22 bebd 7ac8 3e3e
00000010: 16b8 573e 0a4c f53d eb50 033d 57e3 2b3f
00000020: 1060 583e a1be 053e 800f 903d 4ffe 3f3e
00000030: db9a 883e 0880 b13e fe15 ec3d 8cc5 423d
00000040: 4c5b be3e 6f2b a33e c5cd 41be 0861 48bd
00000050: 3034 9b3e 0768 04be 1334 df3d 592d e43d
00000060: cd65 513d 1442 b3bb f2ce 3a3e f2d8 863d
00000070: 13d2 cd3d 7331 69bd 7261 3c3e 639a e8bd
00000080: 43fd f43d 5216 52be ea22 083f 1fef d33d
00000090: 6ce1 b13e 7197 4c3e 694c ebbe 9308 bc3e
000000a0: eb23 963e 0842 4f3d 55e6 9b3e 3df2 293e
000000b0: 021e 753d c3f1 353d 35ad d1bc 9a94 8f3e
000000c0: d900 b73d 3e20 f53e e586 373d 8eb7 653e
000000d0: 96de ccbd 91d6 bebd b2a0 b6bc 5b1d b93d
000000e0: ebd3 a53c 76c0 833e 0a33 503d e5b2 563e
000000f0: 140e c73e f8dd 2f3e cc0e 8ebd 2e82 563d
00000100: 2c0a 4ebe 8088 543d e6d5 0cbe 4927 1c3e
00000110: 5c9a 6dbe 2a19 51bd b96a c3bc 8648 9cbe
00000120: 9d60 1bbd 76fb 8dbd 233e 2fbe 733c a0be
00000130: 04cf 8dbe 0160 87be b3ad 5ebd af8a 1bbe
00000140: ee41 13bf 0f45 083d 4158 85bc 864e 72bb
00000150: 58b8 90be 8708 1dbe f307 17be 5b0f fdbd
00000160: 1141 18be eb9b 133d 0af3 abbd 7843 70be
00000170: f82b a2be 82e3 29bc cb43 64be 1771 24be
00000180: 20a1 a13d ad5d 76be 946c 7bbe 3de4 aabd
00000190: c6b1 97bd 2f5c b7be fec9 1fbd 7fbe 3dbd
000001a0: 2e18 93be 0adf 48be fc33 96be 2b63 3fbe
000001b0: 78ef edbe 6d1c cbbd 99d4 a63d 9fea 6fbe
000001c0: 5058 f2bd c656 cbbe 4944 b43b fd27 86be
000001d0: 4740 76be 7f9f b43d 8299 52be 9aaa 78be
000001e0: cd98 6e3d 8776 39be 362f 14bf 533e d1be
000001f0: 722b 83be 4332 d1bd cbc9 75bd 9e6b 0a3e
00000200: 2a23 1e3e d1d5 b6bd c7a6 a2b9 e925 d3bd
00000210: b118 7cbd 922f cd3d 4ea1 a03d 8b48 053e
00000220: 0cc0 a33d ee24 28bc 9fac 94bd eb6b 483d
00000230: 9b73 073e 330f 0d3e f532 9b3d 1999 e0bc
00000240: 8b07 b83d 4989 cfbd 21c9 2cbd 31e9 113e
00000250: 3daf 3b3d 7e3d f1bd 1f0d 1abd 39f0 e4bb
00000260: af43 993d ed6b 97bd a67e 1b3e 993d 8fbc
00000270: 5ff9 72bd 714f 41bd 82e4 d9bd a632 b23d
00000280: 6d1e d53c 57c8 2bbe fbf6 44bd 1c39 30be
00000290: 99ab 4d3d 2180 1c3d a259 c5bd 69a3 f33d
000002a0: 5e5a 853d 2059 073e 41f0 c9bd 25c0 173e
000002b0: a2ac bdbd c84e efbd c9f3 c8bd c3db 12bd
000002c0: af85 143d 38b3 19be 1416 02be 2171 a2bd
000002d0: d2bf c73d 9f37 c6ba f424 a4bc 9656 31bc
000002e0: 33c9 91bd f189 e6bd 1f9b 93bd a666 813d
000002f0: 1c9a 41bd 9022 f43d 0c84 53bd eba7 b5bc
00000300: 735a 813e 3c9b 873d 7f72 843e 8df0 433e
00000310: da30 d43e fe54 233e beb8 9abc 5396 463f
00000320: 425c 8b3d e079 343e e8a1 083d c279 6e3e
00000330: af1e 9f3e a0f8 dd3e 8170 333e 661c ad3d
00000340: 6fa7 c63e fb5d a73e 49ef c13d 5bf8 bc3c
00000350: a795 cb3e e8f7 803c e46c 003d ea45 343e
00000360: 66ec d8bd bd26 863e 40cf 24bc 5b01 6a3e
00000370: cf8b 36bd eb76 273c 6e76 723e 1b74 68bd
00000380: 792c 123e 10af d2bd 1d6b f43e 4b3b cf3d
00000390: 2b7b d43d e7af c73d 88af 2fbd 9af5 ed3d
000003a0: fb7e 7c3e 2cbd 00be 9aea 723e ff07 503d
000003b0: 7529 8a3d a7cd bc3e 18c5 283e eff9 9a3e
000003c0: 58d4 b5bc 7d55 d43e 0d25 253e 2210 393d
000003d0: 9994 e23e 332e 36bd 705f 2cbd 0ea1 dd3e
000003e0: 87c5 d83d 2ef0 863e 3e62 3cbd 4c09 a13e
000003f0: 55fa f13e 648f b03e 72e2 053e 02c9 0e3e
0.2473844 -0.025266103 -0.09283971 0.18631163 0.21066317 0.11977394 0.03205959 0.6714377
0.21130395 0.13061 0.070342064 0.18749355 0.26680645 0.34667993 0.11527632 0.047551677
0.3717903 0.31869075 -0.18926151 -0.04892066 0.30313253 -0.12930308 0.10898604 0.11141462
0.051122475 -0.0054705236 0.18243006 0.06584348 0.10049834 -0.056931924 0.18396547 -0.11357572
0.11962368 -0.20516327 0.53178275 0.10348343 0.34742296 0.19979645 -0.45956734 0.36725292
0.29324278 0.05060008 0.30449167 0.16596313 0.05984307 0.044420015 -0.025595287 0.28043061
0.089357086 0.4787616 0.04480638 0.22433302 -0.100033924 -0.09318269 -0.022293422 0.09038802
0.020242652 0.25732774 0.050829925 0.2096668 0.38877928 0.17174518 -0.06936416 0.052370243
-0.20121068 0.05188799 -0.13753471 0.15249361 -0.23203415 -0.05104939 -0.0238546 -0.3052408
-0.037933934 -0.06932728 -0.17113547 -0.3129612 -0.27697003 -0.26440433 -0.05436487 -0.15189622
-0.57522476 0.033268984 -0.016277434 -0.0036973073 -0.28265643 -0.15335284 -0.14749126 -0.123564444
-0.14868571 0.036037367 -0.083959654 -0.23463237 -0.3167417 -0.0103691835 -0.22291486 -0.16058765
0.0789206 -0.24059172 -0.24553138 -0.08344314 -0.074069545 -0.35812518 -0.039010994 -0.04632425
-0.28729385 -0.19616333 -0.29336536 -0.18690173 -0.46471763 -0.09917531 0.081460185 -0.23429345
-0.118332505 -0.3971464 0.0055013043 -0.26202384 -0.24047957 0.08819484 -0.20566371 -0.2428383
0.05825119 -0.18111621 -0.5788454 -0.40867862 -0.25619084 -0.10214665 -0.060006898 0.13517615
0.15443102 -0.08927501 -0.00031023307 -0.10309965 -0.061546985 0.10018839 0.078432664 0.13015954
0.079956144 -0.010262711 -0.07259487 0.048931044 0.13227694 0.1377533 0.07578079 -0.027416753
0.08985814 -0.10133607 -0.042184 0.14249112 0.045821417 -0.11779307 -0.03761017 -0.0069866446
0.07483613 -0.07393632 0.15185031 -0.017485427 -0.05931985 -0.0471949 -0.106392875 0.08701067
0.026015485 -0.16775642 -0.0480871 -0.17209285 0.050212476 0.03820813 -0.09636237 0.118964024
0.06511377 0.13217592 -0.09860278 0.14819391 -0.09261443 -0.11684948 -0.09812123 -0.035854112
0.036260303 -0.15009773 -0.12703735 -0.07931734 0.09753384 -0.0015122778 -0.020037152 -0.010823866
-0.07118454 -0.11256779 -0.072073214 0.06318407 -0.04726611 0.11920655 -0.0516396 -0.022174796
0.2526432 0.066214055 0.25868604 0.19134732 0.4144352 0.1595039 -0.01888692 0.77573127
0.06804706 0.17624617 0.03335753 0.23288634 0.31078097 0.43353748 0.17523386 0.08452682
0.38799617 0.3268889 0.09469468 0.023067644 0.39762613 0.01574321 0.031353846 0.17604795
-0.105919644 0.2620143 -0.010059178 0.2285208 -0.044566926 0.010221223 0.2367799 -0.05675135
0.14274777 -0.10287297 0.4773797 0.10118731 0.10375055 0.097503476 -0.04289201 0.116191104
0.24657814 -0.12572163 0.23722306 0.050788876 0.067461886 0.3687565 0.16481435 0.3026881
-0.02219598 0.41471472 0.16127415 0.0451814 0.44253996 -0.044477653 -0.042083204 0.43286937
0.1058455 0.26355118 -0.04599213 0.31452405 0.472613 0.34484398 0.13074663 0.13943866

rnn.0.rnn.bias_hh_l0 f4 [256]
00000000: 8c0a 8e3e df40 04be d860 ab3d 1c47 2e3e
00000010: 1bde 3d3e 577a a13a 6731 193e 37d3 0b3f
00000020: e95f 323e 411d 253e b987 e93d a80f 0a3e
00000030: c924 bd3e 3657 b43e 8cbe c93d 2414 163e
00000040: 6a75 9e3e c404 a93e 3f41 93bd 5eec c0bd
00000050: 75db 5b3e 1bf7 98bd 1f75 563d fcae 813e
00000060: 9306 923d fc7b d2bd c692 463e 81ff c7bc
00000070: 5de8 713d 6a78 d23d 7be5 713e e1ad 9dbc
00000080: 51e6 133e 6a84 69be 616e de3e 5d1e 1fbd
00000090: 6a92 923e 65c5 423e 2eb7 10bf 8054 be3e
000000a0: 6d6c 713e d33e 873d 82f3 973e 6ca9 303e
000000b0: ac88 5d3e 7b8f 7c3e 13d7 e03d 6ded 193e
000000c0: 6f4d 06be 26c7 b73e 4ccb 103d 303e 113e
000000d0: 2ecb e9bc b515 b6bd 93dd aabd 215c 523d
000000e0: c1a2 3dbe 0d95 853e e4b0 fe3c d01b 983d
000000f0: f479 a83e bc70 9d3d 9955 b9bd 6b46 763d
00000100: e6ca 10be 9c64 2ebe b5d4 2dbd e8fb 433d
00000110: cc45 80be 0fd1 653d 4bf1 e9bd 2a62 33be
00000120: 04d9 b4bb 21e0 1cbe 4cc9 08be ca12 a7be
00000130: cdae 9bbe 5903 aabe b46f 6e3d 415e b8be
00000140: f2f6 d0be 6de9 4abe cecc 343d 8daf dcbd
00000150: 055e a2be 95a1 9dbd c7e8 3b3d daa6 bfbd
00000160: edb9 07be b6ac e0bd e710 8e3d 1a1e 94be
00000170: 313d c7be 3fae a3bd 5165 08be c306 89be
00000180: ba1a dabc 5e4d 06be c180 4ebd 8fa2 9ebd
00000190: bd9a 5abe 560f d5be 400c 17be 1187 21bd
000001a0: 340f 99be f42c 74bc 41b3 edbe ab91 4dbe
000001b0: 1eac fdbe 7352 93bd cc3b af3d 1306 acbe
000001c0: d7f2 cebc 42a3 d6be 07e9 80bd 5406 86be
000001d0: 75f6 77be 356e 9e3d 3fcd a5be f66c e4bd
000001e0: 14e6 963b 013a 9bbb 407b 3dbf 9afe ffbe
000001f0: 7d34 95be ddb1 eebd 7a21 7bbd 99fa 08bd
00000200: a60e 8bbd 437d 453d 60e9 5dbe fc13 773d
00000210: 5ca6 84bd 81b1 a73d 0ecf e4bd 5e63 6cbd
00000220: 1a10 1c3d 2732 4fbd fd49 b7bd 0785 5f3e
00000230: e2bd 193e bd61 e23d ed12 683d df28 debc
00000240: 08ca f63d 9eed 66bd b7ef 1e3e 0f0d c13d
00000250: 9a6a 1e3e cf66 533a d013 cd3d 2478 fc3d
00000260: ff4e b53d 5ae0 fcbd 5644 f93c da70 553d
00000270: 96e1 16be eec7 b13d 709e a63d 3f0d 80bd
00000280: 9cfd a2bc aeaa 6bbc 321e d7bc a090 98bd
00000290: d9a3 1abe 5108 05be b900 85bd 962c 58bd
000002a0: cf57 ddbd b365 12bb ad24 37bc e60c 9bbc
000002b0: 290a fa3c 948d 0abe 0749 6f3d 9517 babd
000002c0: 2bea 003c 9e3d 02bc a3a2 8b3a b48a e1bd
000002d0: f687 2a3e 338b ce3d 5b12 3d3d c0b5 0d3e
000002e0: 1cc5 753b 5dc5 11bd 6387 25bd 9036 073e
000002f0: f9a0 1f3e 230a 40bd b8e2 a73d c076 043e
00000300: bebb ba3e f3a8 753b b9ad e13e 8c73 be3d
00000310: fdef b13e e013 c43d 2208 b13d b8e4 3e3f
00000320: f8ac 033b 8528 4c3d e07e d13d 095d 933e
00000330: e296 c53e e105 a53e f6c6 573d 1a17 c73d
00000340: 4d75 873e 328a 233e e00f 583e c44d 1cbd
00000350: 9de6 ea3e 80b6 c8bd 378b 3f3e 93a8 d33d
00000360: 17e1 683d 78bf 943e 3232 f33d b5bc cd3e
00000370: 7568 9a3c d6bd 783e 0ff8 a83e 404c 86bd
00000380: df48 643e 9d4e 32be dffe ca3e bcb7 413e
00000390: 1080 5d3e f23b cf3d d947 83bd ee7c 8d3e
000003a0: c7b4 713e 812c dc3c 308c 823e cfec d3bc
000003b0: b6c4 d03d 9e7b 5f3e f549 a6bb c4cd 673e
000003c0: 2b2e 783d 657f 083f 4495 8e3d e44b 133e
000003d0: f610 e53e f182 24be a0af 18bd 2e79 573e
000003e0: 0b30 2e3d 114b 533d dadd 7fbd a252 713e
000003f0: 48c2 9c3e d102 363e cd07 623c a182 f73d
0.27742422 -0.12915371 0.08368081 0.17019314 0.18541758 0.0012319785 0.14960252 0.54619163
0.174194 0.1612444 0.1140284 0.13482535 0.36942127 0.35222787 0.09850797 0.1465612
0.30948955 0.33011448 -0.07190179 -0.094200835 0.21470435 -0.07469007 0.05235779 0.25328815
0.0713016 -0.102775544 0.19391927 -0.024413826 0.05905949 0.102768734 0.23622696 -0.019247951
0.14443327 -0.22804418 0.43443587 -0.038847316 0.2862733 0.19020613 -0.5652951 0.37173843
0.23576517 0.0660378 0.2967797 0.1725213 0.21634167 0.24664108 0.10978522 0.15031977
-0.13115476 0.35894126 0.03535013 0.14183879 -0.028539266 -0.08890859 -0.08343043 0.051357392
-0.18519117 0.2609028 0.031090207 0.0742718 0.32905543 0.07687518 -0.090495296 0.06012575
-0.141399 -0.17030567 -0.04243918 0.04784766 -0.2505325 0.056107577 -0.11422976 -0.17517915
-0.0055190343 -0.15319873 -0.13358039 -0.32631522 -0.304068 -0.3320568 0.058211997 -0.3600941
-0.40813404 -0.19815607 0.04414063 -0.10775671 -0.31712356 -0.07696835 0.04587629 -0.09357996
-0.13254519 -0.10970442 0.069368176 -0.28929216 -0.38913873 -0.07992219 -0.13319899 -0.2676297
-0.026624072 -0.1311545 -0.050415758 -0.07745849 -0.2134809 -0.41613263 -0.14750767 -0.03943545
-0.29894412 -0.014903296 -0.46425822 -0.20075099 -0.49545377 -0.0719346 0.08556327 -0.33598384
-0.02526228 -0.4192143 -0.062944464 -0.26176703 -0.2421511 0.07735864 -0.32383153 -0.11153595
0.004605064 -0.004737139 -0.7401619 -0.49998933 -0.29141608 -0.116550185 -0.061311223 -0.033442114
-0.06789903 0.048215162 -0.21671057 0.060321793 -0.06477043 0.08188153 -0.11172305 -0.05771195
0.038101293 -0.05058494 -0.08949659 0.2182809 0.15013841 0.11053798 0.056658674 -0.027119098
0.12050253 -0.056378953 0.15521131 0.09426319 0.15470353 0.0008064331 0.100135446 0.123276025
0.08852958 -0.12347479 0.030428093 0.052109577 -0.14734492 0.08680712 0.08135688 -0.062525265
-0.019896321 -0.014383955 -0.026259515 -0.0744946 -0.15101565 -0.12991454 -0.064942785 -0.052776895
-0.10807764 -0.002233845 -0.011178178 -0.018927049 0.030522423 -0.1353057 0.058419254 -0.09086529
0.00786833 -0.007949261 0.0010653328 -0.11012784 0.16653427 0.10085144 0.046160083 0.13838863
0.003750152 -0.03558861 -0.040412318 0.13204408 0.1558875 -0.046884667 0.0819754 0.12935925
0.3647136 0.0037484735 0.44077852 0.092993826 0.3475341 0.09574103 0.08644129 0.7456775
0.002009211 0.04984333 0.102292776 0.28781918 0.38591677 0.32231048 0.05267998 0.09721203
0.2645668 0.15970686 0.21099806 -0.0381601 0.4587907 -0.09800434 0.1870545 0.10334887
0.056855287 0.2905233 0.11874808 0.40183035 0.018848637 0.24291167 0.33001754 -0.06557512
0.22293423 -0.17412801 0.39647576 0.18917745 0.21630883 0.101188555 -0.06410188 0.27634376
0.23604117 0.02687669 0.2549758 -0.025869755 0.1019377 0.218245 -0.0050747343 0.22637087
0.060590904 0.5331939 0.06962064 0.14384419 0.44739503 -0.16065575 -0.037276864 0.2104232
0.042526286 0.05158526 -0.062467434 0.23566678 0.30616975 0.17774512 0.013795805 0.12085462

rnn.0.embedding.weight f4 [64, 64]
00000000: 2fe8 bd3e 5819 513d 829f 80bd b3b4 17be
00000010: 73c9 8abe 7e6b 9fbe 92b5 e63d 6976 80be
00000020: 41c0 86be b082 acbc 6e7f 2fbd 58c3 35be
00000030: 402b ccbe 6118 4e3d bd42 61be bbce 67be
00000040: cfda ec3e 16ea c9be 511a 403e 8a42 0fbe
00000050: 9fd1 633e 5e39 d6bd a888 dabd 3dc9 03bd
00000060: bbe8 ea3d c423 94be 6415 adbd c414 413d
00000070: 87af 643c 276a 7abe d0f3 ec3a b486 0a3e
00000080: 5cf0 923e 89b6 793e e686 40be 5022 9a3e
00000090: acb5 c23e c533 833d 78be a43e 98e6 74bd
000000a0: e679 f1bd 31b2 093e 5413 23be 195c 723e
000000b0: 7f95 bcbe c9b1 a03d c06e c93d 50d8 0f3e
000000c0: 2bd1 1bbe f7b6 17bf 4ef3 39bd 17f8 17be
000000d0: b5ec 6abf 4468 ac3d 7027 1fbd 04af 5b3e
000000e0: 8904 953e bdf0 32be 5c86 e1be b724 c03d
000000f0: c826 f23d 800e 4fbe dfe0 033e abb9 9d3d
00000100: 16a6 ea3d a838 adbe acbf 07bf 4068 0d3d
00000110: 4546 883d f16a 003f 0760 08be e902 a63e
00000120: cc29 bc3e 3136 a4be a2c2 1ebe 4972 8e3e
00000130: cb64 36bc c22d b73d e257 8b3e d06e db3d
00000140: 3703 b23e 9cda aebc ed06 8bbd 623a 623e
00000150: 0096 2e3e 7c81 8bbe dc44 65be b8d1 7f3e
00000160: 8f53 d73d d302 d9be de72 993e 94c7 b23e
00000170: 5a77 eabd a2ac 64bd 046f b5be d8b2 2dbe
00000180: 5cda b93e 89e6 3d3e d7ca 43be a883 043e
00000190: 689a 483e 17a9 883e 6b95 a53e 4b8c 9bbe
000001a0: d0dc 24bb 4b82 da3e 36f0 adbd d009 bd3e
000001b0: a9da a9be e759 1bbf 54f8 3dbe ea44 09be
000001c0: a640 783c a67e 26be f87a 70be 8e1a c8be
000001d0: bf78 78bd c3af 2e3e 8e1e 46be 5e59 a53e
000001e0: 6c0c aabe f0ad 70bb 7adb aebe 3d29 403e
000001f0: d626 6cbe ad02 c7be 86de 3c3d c13c 293d
00000200: d49e 7cbd b67f 35be 16a7 703d 6691 15be
00000210: 802c 533e 47cb afbd 81ee 0bbe 68a7 823d
00000220: e3b5 3b3e 56f0 29be 90a6 063e d848 96bd
00000230: b80e f8be e7ed 653d 0271 753d fb8c a73c
00000240: b961 d8be 337d a8bd 7658 cf3c ff7e 543d
00000250: 16fd 78be a8ac 273d 1fee db3d e460 c73d
00000260: 222e 4abe 719e c53e 9b23 bf3d a208 76be
00000270: e0da 81bd 7609 afbd 6261 d6bd deb1 ab3d
00000280: 600b 2d3e cbe3 7bbd 2019 c2bb d8b9 3b3e
00000290: 1ee8 733a fadd 363e 5324 04be 7831 f2bd
000002a0: fa0e 383e ad30 3d3b 4cde b03e b704 5bbe
000002b0: 2c88 39be 563e 6c3e 12b0 ab3d c407 ba3c
000002c0: 7eb6 99bc 438c fcbd 5db1 a03b 9810 233c
000002d0: 9fb6 acbd 5e07 c0bd 4d61 993d adba 3dbd
000002e0: 9ead 51be 23bc d13d 080e 183f f9d0 1d3e
000002f0: 5332 b83e a324 3f3e 8d49 01be 8e23 b53d
00000300: d858 873d 2722 a53c 26ef 573d 24e4 7ebd
00000310: f2d3 25bd 98bb 3a3d bd45 cbbd 3d76 42be
00000320: 4f0f dfbc 4879 51be 0939 36bd 1831 2f3e
00000330: d242 3abd 1d10 193c 5a1a 963e 026f 7d3e
00000340: e22b 063e fca5 7c3c 0520 afbd 934e cdbd
00000350: d1f7 443d 8712 28bd 3fe3 4abe fad2 a1bc
00000360: 79cb 28bd 8472 7e3c fe32 9dbd 6fd3 35be
00000370: dcb7 cfbd 28a8 223e e10d 6abd 1651 c73d
00000380: d172 0dbe 0947 4c3e a996 b63b d74e d4bc
00000390: 61b2 04be 338e 50bd 2282 0c3e f269 f3bd
000003a0: cc9d 17be 5013 a83d 2646 773d 119e d43c
000003b0: ddd0 00bd 4e0e 003d 7fe5 263e 9d3a d9bd
000003c0: 8928 013e 1e1c 1bbd cbc4 0a3e 72fd 08bc
000003d0: df0b eabc 72cf 283e 2cc0 91bd 7d46 9d3c
000003e0: f356 dd3d 178e b1bd dda7 82be 9243 e4bd
000003f0: 3d52 ebbd d9af 803d c689 62be 74a3 3fbd
0.37091205 0.05104956 -0.06280424 -0.14815025 -0.2710682 -0.31136698 0.112651005 -0.2509034
-0.26318553 -0.02105841 -0.042846136 -0.17750299 -0.39876747 0.05031622 -0.21998115 -0.22637455
0.46260688 -0.39436406 0.18760039 -0.13990226 0.22247933 -0.10460161 -0.10670596 -0.032174338
0.11470171 -0.28933537 -0.084513456 0.047138944 0.013957865 -0.24454556 0.0018078033 0.13527948
0.28699005 0.24386038 -0.1880146 0.30104303 0.3802923 0.06406359 0.32176566 -0.059790224
-0.117908284 0.13446881 -0.15925342 0.23667945 -0.36832806 0.0784641 0.09835577 0.1404736
-0.1521651 -0.5926356 -0.04539805 -0.14840733 -0.91767436 0.084183246 -0.03885597 0.21453482
0.29105023 -0.17474647 -0.4404782 0.09382003 0.11823803 -0.20220375 0.1287875 0.07701429
0.1145746 -0.33832288 -0.53026843 0.03452325 0.06654028 0.5016318 -0.13317882 0.32424095
0.36750638 -0.32072595 -0.15503934 0.27821568 -0.011132429 0.089442745 0.27215487 0.10714495
0.34768078 -0.021344475 -0.0678843 0.22092584 0.17049408 -0.27247226 -0.22389549 0.24982345
0.105139844 -0.42384967 0.2997045 0.3491789 -0.11448546 -0.055828698 -0.3543626 -0.16962755
0.36299407 0.18544973 -0.19120346 0.12940848 0.19590151 0.26691505 0.3234056 -0.30380473
-0.0025156029 0.4267753 -0.08493082 0.3692155 -0.33174637 -0.60684055 -0.18551761 -0.13405195
0.015152132 -0.1625925 -0.23484409 -0.3908276 -0.060662027 0.17059235 -0.19347593 0.32294744
-0.33212602 -0.0036724769 -0.34151822 0.18765731 -0.2306169 -0.3886923 0.046110652 0.041317705
-0.061674908 -0.17724499 0.058753096 -0.14606246 0.20622444 -0.08583694 -0.13665201 0.063795865
0.18331103 -0.16595587 0.13149476 -0.073381126 -0.4844873 0.056135084 0.059922226 0.020452967
-0.42262056 -0.08227005 0.025310736 0.051878925 -0.24315295 0.040936142 0.10738777 0.09735277
-0.19744161 0.38597444 0.09332963 -0.2402673 -0.06340575 -0.085467264 -0.10467793 0.08383535
0.1689887 -0.061496537 -0.0059234053 0.18332613 0.00093043025 0.17858115 -0.12904482 -0.11825842
0.17974463 0.0028868124 0.345446 -0.21388517 -0.18118352 0.23070654 0.08383192 0.022708781
-0.018763777 -0.1233144 0.004903956 0.009952687 -0.0843327 -0.09376405 0.07489262 -0.046320606
-0.20476386 0.10240962 0.5939641 0.15411748 0.35975894 0.1866632 -0.12625714 0.08844672
0.066087425 0.020157887 0.052718304 -0.06222929 -0.04048533 0.04558906 -0.09925411 -0.18990417
-0.02722898 -0.20456421 -0.044487987 0.17108572 -0.04547388 0.009342221 0.2931698 0.24749377
0.13102677 0.015420433 -0.08551029 -0.100247525 0.0480879 -0.041033294 -0.1981325 -0.019753922
-0.04120967 0.015530232 -0.076757416 -0.17756437 -0.1014249 0.15884459 -0.057142142 0.09732263
-0.1381333 0.19948973 0.0055721593 -0.0259165 -0.12958671 -0.05091686 0.13721517 -0.11885442
-0.14806288 0.082068086 0.060369633 0.025954278 -0.031449188 0.031263642 0.16298483 -0.10606883
0.12613119 -0.03786861 0.13551633 -0.008361207 -0.028570114 0.16485384 -0.07116732 0.01919865
0.108076 -0.086696796 -0.25518695 -0.111457005 -0.11490295 0.0628354 -0.22122869 -0.04678674

rnn.0.embedding.bias f4 [64]
00000000: 3921 3abc e69b 993d 2706 be3c 2180 7b3d
00000010: 016b b4bd 4927 5fbd 5ebd 8f3d 938f 83bd
00000020: 7123 92bd 1dd8 453c ec32 04bd 0ddb 84bd
00000030: 487e 083d 1c56 35bd 74e4 b83c b503 6b3c
00000040: 0d54 09bd 2924 f23c 16a5 983d acf1 78bc
00000050: e222 34bd 2ad3 8a3d 3e65 ef3c 867b 85bd
00000060: 778a 213d 5df5 9ebb 3e3e 693d ee44 4cbd
00000070: 9c4d 8cbd a3ec 553d 7ed1 ec3c b815 203d
00000080: 8427 93bd 178d 90bd b23a 9abd dfb3 813c
00000090: 5d59 b3bd 701c adbd 3385 59bd ca79 66bd
000000a0: 8f94 663d c663 33bd ec54 8cbd 7f19 81bd
000000b0: 21ec 12bd 3194 5f3d e620 b43b 8e49 973d
000000c0: 1a82 6bbc 6c91 0abd 1ec9 5f3d f23f 153d
000000d0: 903c 7a3c d440 8cbd d441 f9bc 572b ac3d
000000e0: 995e 073d 568e 51bd 0b0f 62bd bcf4 0dbd
000000f0: 949d a6bd 4559 823d fde0 8dbd 2b71 073c
-0.01136046 0.075004384 0.023196293 0.06140149 -0.08809472 -0.054480825 0.07018541 -0.06423869
-0.07135666 0.012075451 -0.032275125 -0.06487093 0.033323556 -0.044271573 0.022569872 0.014344146
-0.033527423 0.029558258 0.07453363 -0.015194338 -0.04397858 0.067785576 0.02922308 -0.06517701
0.03943869 -0.004851027 0.056944124 -0.049870424 -0.0685074 0.052227627 0.028908487 0.039083213
-0.071852714 -0.07058161 -0.075307265 0.01583284 -0.08757279 -0.0845269 -0.053105544 -0.05626849
0.05629402 -0.043796323 -0.06852135 -0.06303691 -0.03586972 0.054584686 0.005497086 0.07387076
-0.01437428 -0.03383009 0.05463516 0.036437936 0.015273228 -0.068483025 -0.030426897 0.08406704
0.0330492 -0.051161133 -0.055190127 -0.034657225 -0.081355244 0.06364683 -0.06927679 0.008266727
