model/wx_inner/wx_inner_pretrain_end.pt (torch, 320767 bytes, 20 tensors)

cnn.conv0.weight f4 [8, 4, 3, 1]
000000 41 37 58 3d 6d 3f b6 3e e1 f7 88 3e fa c8 c2 3c
       0.05278707 0.35595265 0.26751617 0.023777474
000010 14 fe 35 be a5 38 93 3c c9 be 0e 3f d0 ee a9 3e
       -0.17772704 0.017971346 0.55759865 0.33190012
000020 75 ea c5 3d 11 4d 1d bd 63 24 59 bc 63 4e 86 be
       0.0966386 -0.038403574 -0.013253304 -0.2623168
000030 6a 9c 15 3e e3 cb eb 3d 9a 86 ff 3d de 24 95 3d
       0.14610448 0.11513498 0.12476845 0.072824225
000040 55 4e e6 3d 20 13 78 3e 77 9f 89 bd 84 b8 b4 be
       0.112454094 0.24226046 -0.06719869 -0.35297024
000050 be 97 3b 3c e1 6e e1 be d0 0d 86 bd dd 5e 9f be
       0.011449752 -0.44029906 -0.06545603 -0.31127062
000060 09 66 a0 bd 7e 07 67 be f4 e9 a4 be 29 20 8c 3e
       -0.07831962 -0.22561452 -0.32209742 0.27368286
000070 98 a2 19 be be fc e3 bd 09 cf bc 3e fb 22 ff 3e
       -0.15003431 -0.11132191 0.36876705 0.49831375
000080 d2 e4 1d 3f 55 20 04 be 43 f1 26 3d e4 fd 16 be
       0.6167728 -0.12902959 0.04075743 -0.14745289
000090 8b 92 aa be 8d f8 ca be 34 a3 9b bd 58 22 24 3e
       -0.33314928 -0.39642754 -0.07599488 0.16028726
0000a0 c4 1d a0 3d df bb 9c 3e f7 4e 24 bf ee b1 29 bf
       0.07818177 0.30612084 -0.6418299 -0.66287124
0000b0 6c 03 90 be 03 3c 13 bf 21 35 90 be cd d1 bb be
       -0.2812761 -0.57513446 -0.28165534 -0.36683503
0000c0 25 3e d3 3e 25 0e 0a 3f 6d 28 d1 3d ac cf 72 3d
       0.4125835 0.5392783 0.10212789 0.059280083
0000d0 5e 71 a7 be 55 a0 9c bd 9a d9 5e 3e 8a 3d a1 be
       -0.3270368 -0.076477684 0.21762696 -0.31492263
0000e0 fe 2b 9f be a0 35 8b 3e 7b 82 ce 3e 7e 87 1c 3f
       -0.3108825 0.2718935 0.40333924 0.61144245
0000f0 46 d4 ac 3c 85 42 6c 3e 64 9c 0c bd 69 2b a0 3d
       0.021097314 0.2307225 -0.034328833 0.0782078
000100 44 af 71 3e bd 1c a9 3e 05 4d a5 3d 41 d8 60 3d
       0.23602015 0.33029738 0.08071331 0.054893736
000110 f2 f2 2f be 1f f2 4f be 31 b4 e7 3c 02 0b 5f 3d
       -0.1718252 -0.20307206 0.028284164 0.054453857
000120 ae cd 48 bc 55 22 8c be c5 fa 63 be 21 98 f8 bd
       -0.012256069 -0.27369943 -0.2226363 -0.12138391
000130 fb be 68 bd a4 ec 61 3c a6 cb 90 be a1 ea 89 bd
       -0.05682276 0.01378933 -0.2828037 -0.06734205
000140 36 e9 45 3e f6 1b 8a 3e a0 3d 59 3e 23 4a 27 be
       0.19327244 0.26974458 0.21214914 -0.16336875
000150 ef 21 b6 3e 40 9b e7 bb 35 fc 11 be c7 0b 8b be
       0.35572764 -0.007068068 -0.14256366 -0.27157423
000160 c5 2a a3 bd a3 dd 55 be cc fd 90 be fe 66 24 be
       -0.07967142 -0.20885329 -0.28318632 -0.16054913
000170 ed 5f 17 bd 0b 2f 55 bd 49 ff 27 bd 1d 3a 72 be
       -0.036956716 -0.052046817 -0.041014943 -0.23654981

cnn.conv0.bias f4 [8]
000000 ad cf 0d be 84 fc b4 be a5 d0 b6 3e d3 8b 1f 3e
       -0.13848753 -0.35348904 0.35706058 0.15580682
000010 6c 5a 8b 3e 32 0f ca 3d b9 aa 18 be 54 04 c2 3e
       0.27217424 0.098661795 -0.14908876 0.37893927

cnn.conv1.weight f4 [16, 8, 3, 1]
000000 78 ed 41 bd 52 0b 55 bc d2 c8 28 bd 0c 50 42 3e
       -0.04734561 -0.013003187 -0.041207142 0.18975848
000010 b7 86 79 3c f0 f3 0d be 76 78 ba bd b7 20 43 3e
       0.015229872 -0.13862586 -0.09105007 0.19055448
000020 34 9e d0 3d 92 d6 e0 3c c4 96 2f be 7d de 44 be
       0.10186425 0.027446065 -0.17147356 -0.19225498
000030 e4 4d b0 bd cf e0 4c be 9c 1b 23 3e 55 c6 12 be
       -0.086086065 -0.20007633 0.15928501 -0.1433347
000040 80 05 ba bd 17 5f 4d be f8 b0 f9 3c 7d f4 53 3d
       -0.0908308 -0.20055805 0.030479893 0.051746834
000050 86 ac 28 bc 1f b5 c0 bd 7c 0b 28 3e e2 b1 28 bd
       -0.010295039 -0.09409546 0.16410631 -0.041185267
000060 75 39 0e 3e 9b 38 07 3e 25 4e 4a bd 0e 68 63 3c
       0.13889106 0.13205187 -0.04939093 0.013879789
000070 fc 5c 29 be 69 c6 2f 3e f9 92 d0 3c c6 a9 2c bd
       -0.16539377 0.17165531 0.025460707 -0.042154096
000080 5c cb 3b bd a9 98 04 be 1d f8 0b 3e e5 7b 20 be
       -0.045848235 -0.1294886 0.13668866 -0.15672262
000090 1f d6 87 3d 8d 43 cc 3d 60 ff 1d 3c e9 a0 61 be
       0.06632637 0.09973822 0.009643406 -0.22034039
0000a0 6e e7 9d 3d d2 29 13 3d fb 3d 47 bd 81 9f c2 bd
       0.07710157 0.035928555 -0.048643094 -0.09503079
0000b0 d7 55 19 bd 78 b8 7a bd 4a 03 10 3e 7a a1 17 be
       -0.03743538 -0.06121108 0.14063755 -0.14807692
0000c0 2f b3 96 3e 56 3b 88 3d f4 5c 37 3e a1 bf d7 3d
       0.2943358 0.066519424 0.17906553 0.10534597
0000d0 33 83 20 3d c5 27 1f 3e 6d a7 1a 3e ea 32 1c 3e
       0.03918762 0.15542515 0.1510293 0.15253797
0000e0 04 78 8e be 02 ba 39 be 3c bf 3e 3d b9 d9 ad 3b
       -0.2782594 -0.18137363 0.046569094 0.0053054956
0000f0 c5 e0 18 3e cc ad 13 3e e3 58 8b 3d 7f 7a fc bb
       0.14929493 0.14421767 0.06804063 -0.0077050324
000100 b2 54 0d be 49 ae 71 3e 97 55 0e bc 0e 49 05 3e
       -0.1380184 0.23601641 -0.008687398 0.1301615
000110 1a 74 59 bd 9e 64 3b 3d fc e5 87 be f5 39 a3 be
       -0.05308924 0.045750253 -0.26542652 -0.31880155
000120 1d 39 d9 bc 8c 67 05 3e 3c f2 52 3c c0 cf 1d be
       -0.026516492 0.13027781 0.012875136 -0.15411282
000130 18 03 62 3e 0b 22 70 3d f8 98 6d 3e 3b 11 82 3d
       0.22071493 0.058626216 0.23202884 0.06350943
000140 95 d0 9c 3d 94 bc 9b be 7b 74 56 be 0f 17 0e 3e
       0.07656971 -0.3041731 -0.20942871 0.13875984
000150 48 f2 4d be c4 1a 10 be 22 8a 77 bd dc db 0a be
       -0.20111954 -0.1407271 -0.060434468 -0.13560432
000160 b4 85 8b 3c 21 c7 8c be 1e 5f 38 be 34 5b 3c 3e
       0.017031528 -0.27495673 -0.18005034 0.18394166
000170 22 0d 37 be 7c b9 b4 3e d1 cf be 3e e3 11 01 3f
       -0.17876104 0.35297763 0.37267926 0.5041792
000180 12 1d 0f 3e ac dd a6 bd 47 f1 31 bd 12 13 a5 bd
       0.13975933 -0.08147749 -0.04344299 -0.08060278
000190 11 c5 e8 bd 8e 18 a7 bd a3 73 02 3e 52 c4 78 be
       -0.113657124 -0.0815898 0.12739424 -0.2429364
0001a0 f6 4e 61 be 9e f1 40 be 42 1e c7 bd 0b 72 ce bd
       -0.22002777 -0.1884217 -0.09722568 -0.10080346
0001b0 ba 4e d6 bb e1 0e a5 bc ea 95 2f be 9d 6f f8 3c
       -0.0065401467 -0.020148696 -0.17147031 0.030326659
0001c0 ae 50 18 3e 00 79 fd bd bf 2a aa bc 1a 4e 49 3e
       0.14874527 -0.123765945 -0.020772336 0.196587
0001d0 17 9c 69 3c 9d 81 c3 bd d5 4f d2 bc dd 58 e3 bd
       0.014258406 -0.09546206 -0.025672833 -0.11100934
0001e0 44 f0 fc bc 1f c2 fb 3d 6f e1 e3 bd ce 98 5e bd
       -0.030876286 0.12292885 -0.111269824 -0.054344945
0001f0 bd 20 64 bc 22 b4 1d be 64 4e b9 bd 09 56 ea 3d
       -0.013923821 -0.15400746 -0.09048155 0.11442191
000200 f5 d7 d8 3d 10 0c 4f be 0d e9 0c bd 0d 29 81 3c
       0.105880655 -0.20219445 -0.034401942 0.015766645
000210 69 a7 6c bd 39 d3 47 3e 67 94 27 be 56 06 4c be
       -0.057776842 0.19514169 -0.16365205 -0.19924292
000220 af 8c 79 3d 64 fc 47 be d1 0d 2b be 8e 16 03 3e
       0.060925182 -0.19529873 -0.1670449 0.12801573
000230 b8 c2 ca 3d 52 ab ea bd 2a 8a 9c bd e1 d0 bd 3c
       0.09900421 -0.11458458 -0.0764354 0.02317089
000240 aa 5e 9c 3e ce c6 a5 3d 3f 3c 46 3e 52 f2 36 3e
       0.30540973 0.080945596 0.1935892 0.17865875
000250 99 bb a7 3c 3f 93 05 be 8f b9 a0 3c e1 05 68 3e
       0.020475196 -0.13044451 0.019619731 0.22658493
000260 c2 22 ac 3e 19 dd 32 3e 72 8e 54 3e 71 63 eb 3d
       0.33620268 0.17467155 0.20757464 0.11493576
000270 00 b8 27 bd aa af 96 be 32 2f 2f 3d d6 15 72 be
       -0.04094696 -0.29430896 0.04276962 -0.23641142
000280 0f ca a0 3c 56 f5 25 bd 6e 2a 8a 3c f4 3d 32 be
       0.019627599 -0.040517174 0.016865935 -0.17406446
000290 83 c6 e4 3d 52 f2 1f 3f fe 85 15 3f 43 34 39 3f
       0.111706756 0.62479126 0.5840758 0.7234537
0002a0 dc 9c 17 3e 82 8c 35 3e 3a f5 c4 3c 53 a4 b5 3c
       0.14805931 0.1772938 0.024042714 0.022173082
0002b0 e0 36 ee bc 05 1f 4b be 7c 49 45 bd 50 43 5f bd
       -0.0290789 -0.19836052 -0.048165783 -0.054507554
0002c0 ee a0 8f bd 3e 91 54 be 18 75 4e be ae 04 ef bd
       -0.07013117 -0.2075853 -0.20161855 -0.116708145
0002d0 a2 a2 63 be 70 a3 0d 3e 70 c9 34 3e 3d 3f 54 be
       -0.22230008 0.13831878 0.17654967 -0.20727248
0002e0 c0 f1 41 3d 23 4d 3a bd 88 44 48 be 35 83 9d 3d
       0.04734969 -0.04548372 -0.19557393 0.076910414
0002f0 dc 9f 39 be 83 bc 31 be 22 62 f3 3d 4d 36 1a be
       -0.18127388 -0.17357068 0.11883952 -0.15059777
000300 a6 fd 08 3d 18 85 3c be 81 a9 47 3e 29 7e 0b 3e
       0.033445023 -0.18410146 0.19498254 0.13622345
000310 27 8c 4e 3d 0e e7 0a 3e 97 45 4a be 3f 8f ba bc
       0.05042663 0.13564703 -0.19753109 -0.022773383
000320 3d 19 84 3d aa 0c 56 bc 56 39 5d bd 64 7f 6a bd
       0.06450126 -0.013064543 -0.054009758 -0.057250395
000330 01 03 63 be c1 e2 92 bc da b7 49 be a6 a9 29 be
       -0.22169115 -0.01793039 -0.1969904 -0.16568622
000340 c6 f2 18 3d 4a 1b 2d 3e 46 3c 3d bc 22 41 4b be
       0.0373409 0.16904941 -0.011550015 -0.19849065
000350 d6 a7 0b 3e 24 86 7e bd 81 a5 71 bd 8d 2a 23 3e
       0.13638243 -0.062139645 -0.058995727 0.159342
000360 6e 07 4b 3e ce c5 21 bd 87 5d 16 3c 4d e3 8a 3d
       0.19827053 -0.039495282 0.009177572 0.067816354
000370 05 f6 1b bd ea 4a 1d 3e 32 e1 36 be 52 46 6e 3c
       -0.03807642 0.15360609 -0.17859343 0.014543133
000380 dd a7 a1 bd 48 20 c7 3d e1 3b 28 be e9 13 ca bd
       -0.078933455 0.09722954 -0.16429092 -0.09867079
000390 0d c7 9a 3c 9b 61 86 3c 44 84 02 3d b8 ec 34 be
       0.018893743 0.016403964 0.03186442 -0.17668426
0003a0 34 51 bb 3d ff c8 0e 3d 37 93 2c be 3d 56 46 be
       0.09146348 0.034859654 -0.16853033 -0.19368835
0003b0 3f 6b da 3d 48 f1 22 be e0 76 4b 3e 21 ce df 3c
       0.10664987 -0.15912354 0.19869566 0.02731997
0003c0 a2 73 f0 3d 08 94 03 bd 95 01 c1 3d d6 6c 55 3d
       0.11740805 -0.032123595 0.0942413 0.052105747
0003d0 4f aa 64 bb cf 36 44 3e ba 96 0a 3c b4 89 4e be
       -0.003489155 0.19161533 0.008458788 -0.20169717
0003e0 bb 4d 4f be 42 b0 4b 3e a8 52 79 bd 23 fa 9a bd
       -0.20244496 0.19891456 -0.060869843 -0.07567241
0003f0 f8 9e 28 3e 9e 4b 37 3e dc 9c 3a 3e ef b9 60 3e
       0.16466892 0.1789994 0.182239 0.21945928

cnn.conv1.bias f4 [16]
000000 4b 90 a3 3c ab fa 02 be 56 07 c0 bc 2f d7 76 3d
       0.019966265 -0.12790935 -0.023440998 0.06026381
000010 b7 09 d0 3d c6 0e 9b bd 9d 6c 94 bc 06 9f 2d 3d
       0.10158103 -0.07571177 -0.018118197 0.042387985
000020 f8 f3 1f be e2 c9 cc bd 9f a0 d1 3d bb 3f 02 bd
       -0.1562041 -0.099994436 0.10235714 -0.03179906
000030 12 75 16 bd c0 cd 1f be 5e 7f 84 3e 24 8c cf 3c
       -0.03673274 -0.15605831 0.25878423 0.025335379

cnn.conv2.weight f4 [64, 16, 3, 1]
000000 73 df 60 bd d2 c6 45 bd fd ff 12 be 1f cd 04 be
       -0.054900598 -0.048285313 -0.14355464 -0.12968872
000010 35 0d ba bc 80 f6 fa 3d 00 16 92 3d d3 a8 ca 3c
       -0.022711376 0.122540474 0.071331024 0.024738705
000020 ba c2 e5 3d 37 da 88 bd 16 a9 c4 3d a2 3f d0 bd
       0.11218782 -0.06682246 0.09602563 -0.10168387
000030 0d bb d8 bd 8e f6 f8 3d 0d 52 77 bd 43 aa fc 3d
       -0.10582552 0.121564016 -0.060380984 0.12337162
000040 f2 00 3d bd 07 1a c2 bd cb 3f 7f be 86 df 22 bf
       -0.04614348 -0.094776206 -0.24926679 -0.6362232
000050 72 a9 27 bf 01 c6 e5 bd 91 3c ed 3d 5d fc 79 bd
       -0.6549293 -0.11219407 0.11583818 -0.061031688
000060 1e d7 a5 bd 81 20 ef 3d 0a 7c 14 3d 12 89 b4 3c
       -0.08097671 0.116761215 0.036251105 0.022038016
000070 f9 09 91 bc d9 92 67 bd 0e ae 11 be aa f5 58 bd
       -0.01770495 -0.05653653 -0.14226553 -0.05296866
000080 07 2d 41 bb 69 a4 05 be bc 92 49 bd 6b e8 c6 3d
       -0.0029476301 -0.13050999 -0.049212202 0.09712299
000090 1c a9 88 3e a3 60 08 3e af c2 3c 3e 73 56 5f be
       0.2669152 0.13318114 0.18433641 -0.21810322
0000a0 0d 2e 8b 3d fe c3 e2 3d 82 c0 94 be cd 7c f1 be
       0.06795893 0.11072539 -0.29053122 -0.47165528
0000b0 44 5c 5f bf ee 22 3c 3e 9a d6 a6 3e 60 27 08 3f
       -0.8725016 0.183727 0.32585603 0.5318508
0000c0 cb 49 b4 bd 15 7e 1b bd 23 75 e2 3d f9 42 e2 bd
       -0.088031374 -0.037962038 0.11057498 -0.1104793
0000d0 a0 9d 83 bc eb cd 11 3e 0c ab e2 bc 42 25 75 3c
       -0.016066372 0.14238708 -0.027669452 0.014962496
0000e0 b1 53 27 3e c6 5e df 3e 01 c5 c5 3e 86 91 bc be
       0.1634052 0.43626994 0.38626865 -0.36829776
0000f0 78 33 b2 3d b0 7c a4 bb 9e 15 a3 3d 59 91 62 3d
       0.08701223 -0.0050197467 0.079631075 0.055314396
000100 34 a2 04 bd 22 b9 b1 bd 5a 02 e0 3d 9d db f7 bc
       -0.03238125 -0.086778894 0.109379485 -0.030256087
000110 38 15 7d be 21 10 ca bb d9 e6 7b 3d f8 82 11 be
       -0.24715126 -0.0061664735 0.06149945 -0.14210117
000120 c8 c2 ae 3d 07 44 0b 3e e4 1d 0a be de 66 25 3b
       0.08533245 0.13600169 -0.13487965 0.0025238316
000130 32 81 f5 bd b9 d1 cc bc c8 80 ac bd ad 6d cc 3d
       -0.11987533 -0.025002347 -0.084230006 0.099818565
000140 98 e2 79 3d 30 c2 b0 3c 41 a1 a5 bc 86 cc e1 bd
       0.061007112 0.02157697 -0.020218493 -0.11025338
000150 78 50 88 3e ac 36 a7 3d 6f 5b 66 bd 77 75 24 bc
       0.26623893 0.08164725 -0.05623954 -0.010037771
000160 70 69 75 bd f3 fa 92 3d 99 5a 82 bd ae f9 e9 39
       -0.059915006 0.07176771 -0.063649364 0.0004462725
000170 64 1f 0e bf f7 1a 73 3e 2c 6f f3 3d d4 4e 34 bd
       -0.5551665 0.23740755 0.11886439 -0.04402049
000180 e6 aa ce 3d 22 ed 1b bc 20 19 82 3d bf 53 9c 3d
       0.1009119 -0.009516986 0.063524485 0.07633161
000190 1e 2a 53 bd 47 e2 e5 bd 8b 61 20 bc 1b 5a f2 3d
       -0.051553838 -0.112247996 -0.009788881 0.118335925
0001a0 52 ae ab bd 0a de 86 bb 58 19 f4 3c 79 3b 0e bd
       -0.08382858 -0.0041158246 0.029797241 -0.034724686
0001b0 82 f1 5b bc 58 c2 f1 3d 9e 93 eb bd e5 36 01 3e
       -0.013424279 0.11804646 -0.11502765 0.12618597
0001c0 c1 c0 fc bd ac 1a df 3d 85 43 ce 3d 94 c1 37 bd
       -0.123414524 0.10893759 0.10071472 -0.044862345
0001d0 3f 04 5b 3d e8 07 a9 bd 4d a3 e6 bc 57 aa 01 3d
       0.053470846 -0.08253461 -0.02815404 0.03165659
0001e0 b9 37 97 bd ad ce 66 3c 95 64 f8 3d 3d d3 48 bc
       -0.07383675 0.014087361 0.121285595 -0.012257394
0001f0 fd a2 9f bd 8b ee c7 3d 3e ac f4 3d dc da bd 3d
       -0.077947594 0.09762295 0.11946915 0.0927026
000200 0f 57 84 bc bf 20 97 3d 50 d4 8d 3d 3e 61 92 3d
       -0.016154794 0.07379293 0.06925261 0.07147454
000210 77 4e 0c 3d 51 09 08 be a8 b0 b4 bc 02 b8 d3 3d
       0.034254517 -0.13284804 -0.022056893 0.10337831
000220 31 79 4c bd 8b 52 bf bd 0b b4 bb bc 1a 0e 01 bd
       -0.049920265 -0.09341916 -0.022913 -0.03150759
000230 fb df cb bd d2 1b 4a ba e8 49 d1 bd 47 80 03 be
       -0.0995483 -0.0007709834 -0.102191746 -0.12841903
000240 ea 31 25 bd 75 c8 05 be 0f cd d5 3c 8e 96 0e be
       -0.040330805 -0.1306475 0.026098756 -0.1392462
000250 33 1d a0 bd 96 e1 f8 3d ed 5a ad bd a8 28 8a 3e
       -0.07818069 0.12152402 -0.08464608 0.26984143
000260 51 f4 63 be d4 6b 54 bd a5 bd 9a bc bc 44 77 3e
       -0.22261168 -0.051860645 -0.018889258 0.24147314
000270 95 a4 17 3d 1b 78 ef bd e7 68 3b 3d af 7a 43 3d
       0.037022192 -0.1169283 0.04575434 0.047724422
000280 cd 9f b4 bc 27 bd 08 3e b8 2c cf bd 1e 68 a2 be
       -0.022048855 0.13353406 -0.10115951 -0.3172006
000290 47 4f 1c 3e 59 91 fc 3d 5f a7 08 be d5 17 19 bd
       0.15264617 0.1233241 -0.13345097 -0.037376244
0002a0 e8 1a a2 3d 3c 4a 6f bd b6 9e 85 3d 9e 9e 3e 3d
       0.07915288 -0.058420405 0.06524412 0.046537988
0002b0 67 73 c6 3d c6 24 b7 bd b0 08 57 be 29 0b 82 bc
       0.0968998 -0.08942561 -0.20999408 -0.015874462
0002c0 a1 14 f0 bd 91 2f ca bd c1 a7 d6 3d 8d e6 bb 3d
       -0.11722685 -0.09872354 0.10481215 0.091748334
0002d0 c2 4b ee be 47 45 1e 3d 06 ae 01 3e 66 96 c2 3e
       -0.46542174 0.038640287 0.12664041 0.3800537
0002e0 58 da ca 3e c8 0b 0b bd 89 13 73 bd d0 43 47 3e
       0.39619708 -0.033946782 -0.059344802 0.19459462
0002f0 db 6c 8f 3e 7e 52 0a bf 72 e5 93 bd cd 75 78 3e
       0.28012738 -0.54032123 -0.072214976 0.24263687
000300 26 6c 50 bd 0c 03 bb bd c3 25 8c bd c1 34 79 bd
       -0.05088439 -0.091314405 -0.0684314 -0.060841326
000310 05 1a 1c 3d 36 76 8b 3d 3a 87 d8 bd 8b 42 f7 bd
       0.03811075 0.06809656 -0.105726674 -0.12073239
000320 95 35 2f 3d 2c 83 b7 bc 38 c2 c4 3d 69 55 fd bd
       0.04277571 -0.022401415 0.09607357 -0.12369806
000330 66 33 5d bd f1 99 85 bb ec 31 ae 3d 3e 35 b1 3d
       -0.054004095 -0.004077189 0.085056156 0.08652733
000340 86 21 4e 3b d0 fd c4 bb 8e 80 d1 3d fe d7 cc bd
       0.0031453087 -0.006011702 0.10229598 -0.10002135
000350 d9 ff be bd df 20 a3 bd 39 ce fe 3d 64 5a f0 3d
       -0.09326143 -0.07965254 0.124416776 0.11735991
000360 30 2e 12 be 74 9c 8e bb 1f 6f 0b be 9e c9 b6 3d
       -0.14275432 -0.0043521468 -0.13616608 0.08925174
000370 2c 5a ab 3c 28 66 35 bd 06 f8 c8 3d 00 28 af bd
       0.02091702 -0.044286877 0.09812932 -0.08552551
000380 6a ec 3c bd 0b a2 ec bd d2 61 c4 bd 65 c3 5e bd
       -0.0461239 -0.11554345 -0.0958897 -0.05438556
000390 64 06 dc bd 8c 7c 13 be fd 5a 18 3d 16 82 b1 bd
       -0.107434064 -0.1440298 0.03719615 -0.0866739
0003a0 cc 35 09 be fb 41 d9 bd 01 c2 43 bb 8a 34 bc bd
       -0.13399428 -0.10608288 -0.0029870274 -0.091897085
0003b0 38 29 8f bc a6 54 84 3d d3 93 b8 bd 03 ce 0f be
       -0.01747571 0.06461458 -0.0901257 -0.14043431
0003c0 f1 4a 07 be 25 bf bb bc 1c d9 a4 bd cd 76 06 3e
       -0.13212182 -0.022918293 -0.08049223 0.13131256
0003d0 ec ac 0d be 6a ab df bd a8 99 f7 3d e8 87 f7 3c
       -0.13835496 -0.109213665 0.120898545 0.030216172
0003e0 3b 16 b1 3b 6f e9 91 3e 23 9d 1a 3d 92 a5 eb bd
       0.0054042614 0.28498408 0.037747514 -0.115061894
0003f0 b2 da c4 3d 86 9f db 3d e1 73 93 bd c3 1a 39 bd
       0.09612025 0.10723786 -0.071998365 -0.045191538

cnn.conv2.bias f4 [64]
000000 8d 6c af bd 4f 98 92 bd 23 50 c4 bd 6e 2f 12 3e
       -0.08565626 -0.07157957 -0.09585597 0.14275905
000010 4d 9c 18 bd f6 e5 ec bc 7b 44 08 be 4b 3e 5d 3d
       -0.037258435 -0.028918248 -0.13307373 0.054014485
000020 40 77 5d bd 9c 18 7d 3c 3c 4c 1f bc c8 e5 32 bd
       -0.054068804 0.015447762 -0.009722766 -0.043676168
000030 d1 45 a2 bd 5a 5b 0f be a1 37 d8 3c 8b 9d 37 bd
       -0.07923473 -0.13999692 0.026393713 -0.04482798
000040 d3 db 8b 3c 97 c5 01 3e 64 ad 65 bc 6f 9c 91 bd
       0.017072594 0.12673031 -0.01401839 -0.071099155
000050 d2 95 ca bd 3e cd 8d bc cc 36 04 3d a0 39 74 3e
       -0.09891857 -0.017309781 0.03227882 0.23850107
000060 c1 d0 2f 3d bd 28 bb bd 6e 6f ca bd 06 3f bd bd
       0.042923693 -0.091386296 -0.09884535 -0.092405364
000070 b9 a5 f2 3c 8d 38 76 bd cd 74 ec bd c0 7c a0 3d
       0.029620038 -0.060112525 -0.115457155 0.07836294
000080 31 b4 84 bd 45 6b 22 bd fc 57 1f 3d c7 2d eb 3d
       -0.06479681 -0.03965308 0.038902268 0.11483341
000090 6d 62 2d bd 24 e9 0a be 8d 22 cb bd 07 cd 92 bb
       -0.042330194 -0.13565499 -0.099186994 -0.0044800076
0000a0 92 0d 18 be be 4d 95 bd f6 a5 be bd 0f 86 e2 bd
       -0.14848927 -0.07290219 -0.09308998 -0.11060726
0000b0 b4 c8 7f bb 59 a9 52 3d e7 2f b5 3d 15 f2 0f be
       -0.003902954 0.051431034 0.08847027 -0.1405719
0000c0 88 27 91 3d 16 1b b1 bd 32 a9 0c 3e 11 04 52 3d
       0.07087618 -0.08647744 0.13736418 0.05127341
0000d0 7a 7d 94 3c 7f 31 8a bc 54 df 1d 3e 75 0c c4 3d
       0.018126238 -0.016869305 0.15417224 0.095726885
0000e0 18 a4 1a bd 90 5d aa bd d4 8f 2e 3d dd a4 f2 3d
       -0.03775415 -0.08318627 0.042617634 0.118478514
0000f0 dd 1a df bd e5 43 93 bd df c7 89 bc db 7e e1 bd
       -0.10893796 -0.07190684 -0.016818939 -0.11010524

rnn.0.rnn.weight_ih_l0 f4 [256, 64]
000000 3b 6a df 3e cd a1 17 bf ac 56 c6 3b a4 eb 21 be
       0.43635735 -0.59231263 0.0060528126 -0.15812546
000010 3c 6b fa bd 78 8f f2 be a8 70 dc 3c 14 3c 85 3e
       -0.122274846 -0.47375083 0.026909187 0.26022398
000020 f2 44 95 bd b0 cd af bd 38 b9 cb 3d a9 be c9 bc
       -0.07288541 -0.08584154 0.09947437 -0.024627047
000030 93 91 f9 bc 6b d7 d0 be 5f 50 14 bf 65 5a 0d bd
       -0.030464923 -0.4078935 -0.57935137 -0.034510035
000040 d1 3f cc 3e ea e3 09 3f 1d 34 63 3e a5 31 30 bd
       0.39892438 0.53863394 0.22187848 -0.043016095
000050 4a 17 b7 3d d6 01 13 bd a0 50 96 bb 3b e2 b7 be
       0.08939989 -0.035890423 -0.004587248 -0.35914788
000060 79 3b f6 3d a3 d1 be 3c 2e 45 f5 bd 87 5d 99 be
       0.12023062 0.023293322 -0.119760856 -0.29954168
000070 79 57 ce 3d c0 70 ab 3c c6 e3 93 3d 64 43 85 be
       0.10075278 0.020927787 0.07221179 -0.26027977
000080 ff b5 a8 3f 79 09 d6 bd eb dd db 3c 1a de 27 3e
       1.3180541 -0.104510255 0.026839217 0.16393319
000090 a2 96 c4 bd b1 3a e7 3d e8 24 27 bd 7c 6e 91 3d
       -0.095990434 0.11290491 -0.04080668 0.07101151
0000a0 8c ef 5c be 48 34 fb bc 30 52 0f 3c 28 09 7f bd
       -0.21575755 -0.030664578 0.008747622 -0.06226459
0000b0 fc 34 9a 3e a8 70 09 bf a0 ea 21 bf 81 d8 96 bd
       0.3011855 -0.53687525 -0.63248634 -0.073655136
0000c0 ff bc 19 3f 98 c0 0d bf c4 78 a9 3c 02 dc dc bd
       0.6005401 -0.55372 0.020687468 -0.10784151
0000d0 e2 03 ea be 94 26 8f 3d 05 6d ad bf 3c 59 ab be
       -0.45706087 0.0698978 -1.3548895 -0.33466518
0000e0 31 11 18 bf 77 91 ed 3d 29 d3 dd be 1d 89 87 3e
       -0.5940123 0.11600011 -0.43325165 0.26471797
0000f0 fb 13 e4 3a 36 8d 44 be c8 ba 13 3d cd c2 e4 3c
       0.0017400974 -0.19194493 0.0360668 0.02792492
000100 a5 fb 04 bf 8d 0e 09 be 8c 51 84 bd b1 90 dc 3d
       -0.5194648 -0.13384457 -0.06460866 0.10769785
000110 80 23 f0 3a 19 be 9a bd 40 71 dc bd 6f ad 29 3b
       0.0018321127 -0.075557895 -0.10763788 0.0025890728
000120 b3 13 dd 3d 50 21 87 bd 24 42 06 3e a9 5e 9a bd
       0.10794773 -0.06598151 0.13111168 -0.07537586
000130 a9 cd 87 be 1e 4f 93 3e b4 ad 26 bf 2f cb 85 3b
       -0.26524094 0.287713 -0.651088 0.0040830593
000140 f0 3f 88 3e da b5 0b 3e 87 ee 0b bf 5a cd 9a bd
       0.2661128 0.1364359 -0.5466084 -0.07558699
000150 a4 46 8b 3d 00 b3 93 bc a8 74 b2 3c 20 42 cc be
       0.06800583 -0.01802969 0.021784142 -0.398942
000160 42 20 77 be 58 9c 99 bd d0 65 a4 3c 0e 0f 9c bd
       -0.24133399 -0.07500523 0.02006808 -0.07620059
000170 ca a1 ec 3d 0d 0c da 3d 70 4a bb bc 93 ef 14 3d
       0.11554296 0.1064683 -0.022862643 0.03636129
000180 08 91 9d bc e3 a3 8f 3d db ce 43 3c 7e 6b ea 3d
       -0.019234195 0.07013681 0.011951174 0.11446284
000190 a0 5c b1 3d 01 5f 96 3d f0 59 a2 3d c8 42 9b bd
       0.08660245 0.07342339 0.079273105 -0.07581097
0001a0 e3 5c 47 3e 56 91 b9 3d 3c 9d c7 3d 1c b2 ef 3c
       0.19469027 0.09060924 0.09746787 0.029259734
0001b0 67 05 d9 3e 8a a9 39 bf bc 38 be be 13 de 8c 3d
       0.42386934 -0.7252432 -0.3715266 0.06878295
0001c0 f3 29 78 3f f4 73 e5 3d ac 7b bc 3e e0 f0 33 bd
       0.9693901 0.11203757 0.36813104 -0.04393089
0001d0 6d 97 55 bc c0 af 2a bc 04 d6 5d be db 73 7f be
       -0.013036591 -0.010417879 -0.21663672 -0.24946539
0001e0 12 ba 56 bf 56 08 b0 bd 23 e8 11 be 63 4f 15 3f
       -0.8387767 -0.0859534 -0.1424871 0.5832426
0001f0 e1 a0 62 bc 1d 9a 5f bf a9 0e e1 bd 9e 8c d0 bd
       -0.013832302 -0.87344533 -0.10989124 -0.101830706
000200 de 4e 7b bd a6 f3 c9 be 4c 92 99 bc fa 52 9f 3b
       -0.06135451 -0.39443702 -0.018746518 0.0048621865
000210 90 f6 0b 3d 5e 79 85 be 50 50 04 bc 2a 3f ee 3d
       0.034170687 -0.26069158 -0.008075789 0.11633141
000220 56 01 9b be d8 20 a7 bd 60 4b 7d bc ef 09 a7 bd
       -0.30274457 -0.08160561 -0.015459865 -0.081561916
000230 36 e8 43 3e 77 ef 38 be 92 5c 14 bf ee 51 67 bd
       0.1913155 -0.18060099 -0.5795375 -0.05647462
000240 eb ba ca be ce 85 ef 3e 4b 06 11 bf ca 13 60 3c
       -0.39595732 0.46781772 -0.5665023 0.013676593
000250 b0 0b b1 bd ab 1f 3d 3d 28 65 10 3d 2b 34 ca 3e
       -0.08644807 0.04617278 0.03525272 0.39492926
000260 90 f1 2a bf 1e b0 25 bf 40 a8 55 3d 58 e8 ad be
       -0.66774845 -0.6472186 0.05216241 -0.33966327
000270 e0 ed 7d 3d ce 4d 96 3d c2 9e ca 3d a8 fa 15 be
       0.061994433 0.07339059 0.09893562 -0.14646399
000280 60 e8 0d 3e 4b 73 ad bd cf cf c4 3d 43 ee 03 3e
       0.13858175 -0.08469256 0.09609949 0.12883858
000290 7d b6 f6 3d 57 a4 9d bd e0 b5 d9 bd ae 08 a5 3d
       0.120465256 -0.07697361 -0.10630393 0.08058296
0002a0 7f 0d 5e be f0 af a3 3c c0 30 80 bd 3e dc bf 3c
       -0.21684836 0.019981354 -0.06259298 0.02342045
0002b0 e2 e1 f3 be 9d 57 f1 bd 63 4e b1 3e 8e 2a 8b bd
       -0.47633272 -0.11784289 0.34630117 -0.06795226
0002c0 94 d8 04 bf c2 53 94 be a8 5e 22 3f b0 ad bf bd
       -0.5189297 -0.28970152 0.63425684 -0.093593
0002d0 98 e6 4a be 80 52 da 3c 2f b5 c6 3e ef 67 5a be
       -0.19814527 0.026650667 0.38810107 -0.2132871
0002e0 86 a8 48 bf b7 b4 d5 bd c9 21 e4 bd e0 89 a7 bd
       -0.78382146 -0.10434859 -0.111392565 -0.081805944
0002f0 a0 84 0c 3d aa 67 c3 bd d7 09 93 bd b1 a5 ca bd
       0.03430617 -0.09541257 -0.07179611 -0.098948844
000300 e4 83 68 be 68 f9 e5 3e ea d3 e6 bd f5 68 07 bf
       -0.22706562 0.44916844 -0.11270888 -0.52894527
000310 b4 f5 bb bd 07 ff 84 be 38 3c 1b bd a6 9d ee bd
       -0.091777235 -0.2597582 -0.037899226 -0.11651163
000320 6f cd 21 bf 90 c1 7c 3c c5 f7 84 bd b3 e5 13 bd
       -0.6320409 0.015427008 -0.06492571 -0.03610773
000330 e6 1f 4b bf 52 ca b3 bd be a8 66 3c c3 2b 8a 3d
       -0.7934555 -0.08778824 0.014078317 0.06746628
000340 bc 96 52 be 70 5f 52 bb cc 2d 65 bf 7a e8 30 3d
       -0.20565313 -0.0032100342 -0.89523005 0.043190457
000350 5c 9b 44 bd ac ae 21 3d fc 4f 24 bd a0 5d 70 3e
       -0.047999725 0.03947322 -0.04011534 0.23473215
000360 ec 6d 80 bf fc c5 e8 3e 38 64 ef bd a2 69 5c 3e
       -1.0033545 0.4546355 -0.11689037 0.2152467
000370 d0 5f 13 3d 03 0e d1 3d be 5a d1 bd 39 18 60 3d
       0.035980046 0.10207751 -0.10222386 0.0547106
000380 2e 4e b9 be a3 63 cd 3d 2b 2e f2 bc 4f 31 c7 3d
       -0.3619246 0.1002877 -0.02956303 0.09726202
000390 2f eb 6f 3d 15 49 46 bd a0 0c ee 3d b4 91 82 3d
       0.058573898 -0.04840954 0.11623502 0.06375447
0003a0 56 74 8d bd a8 ea 6a 3d 98 33 81 bd e6 ef 7f 39
       -0.06906955 0.057352692 -0.06308669 0.00024408064
0003b0 a8 b9 9f be fa 3d 4e be d9 13 c3 3f 24 b3 91 bd
       -0.31196332 -0.2014083 1.5240432 -0.071142465
0003c0 8a b5 1c 3f f4 71 ad 3e b6 9e cc bd be 5e e9 bd
       0.61214507 0.33876002 -0.09991209 -0.11395024
0003d0 36 c2 01 be 36 79 9e 3d 88 9a 7a 3f 11 0c 9f 3e
       -0.12671742 0.07737963 0.97892046 0.31063893
0003e0 72 af 77 3c 1e ce 76 3c d3 de 17 be da 61 b9 be
       0.015117513 0.015063791 -0.14831094 -0.36207467
0003f0 91 c4 df 3c 0c 8d 06 3d 49 33 15 bd e3 df 40 3b
       0.02731541 0.032849357 -0.036425862 0.0029430322

rnn.0.rnn.weight_hh_l0 f4 [256, 64]
000000 b4 c3 2b 3f c8 76 50 be 49 2d ed 3d 2b 76 2c bf
       0.67095494 -0.20357811 0.11580903 -0.6736781
000010 49 f4 b7 3d 23 98 b4 bd 28 e7 71 3e e6 e3 1c 3e
       0.089821406 -0.0881808 0.23623335 0.15321311
000020 33 1a 12 3f 0e 39 b6 3e 3f 4a 25 3f 4c 87 c3 be
       0.57071227 0.35590404 0.64566416 -0.3818916
000030 c7 68 67 be b7 40 43 bf 36 fd e4 3d cb 91 84 3d
       -0.22598563 -0.7627062 0.11181109 0.0647312
000040 cc 7e b5 be fe 09 7a 3f 60 32 95 3e ee 59 04 be
       -0.354483 0.97671497 0.29139996 -0.1292493
000050 35 f9 77 3f 52 4e 48 bd 08 c1 2b 3d 2c 90 81 be
       0.96864635 -0.048902817 0.041932136 -0.25305307
000060 f0 d0 93 3c 16 09 39 3f cf 39 69 3d 33 3e 01 bd
       0.018043965 0.7227949 0.056939896 -0.03155346
000070 10 12 fa bd 14 14 b3 3e dc ff 28 bd a0 ba 4c 3f
       -0.122104764 0.34976256 -0.04125963 0.7997227
000080 48 7c 10 3e 69 9f dc 3d c8 0b a9 3e a2 1e 0e 3e
       0.1410991 0.107725926 0.330168 0.13878873
000090 2f 70 cd 3e 26 f0 94 bf 06 ce 76 3e d7 1c 89 bf
       0.40124652 -1.1635787 0.24102029 -1.0711926
0000a0 66 bd ed 3d 20 67 0b 3e 54 26 1d bf ce 18 8a 3d
       0.116083905 0.13613558 -0.6138661 0.06743012
0000b0 5f 99 ad 3d 8d 8a 67 3f ae 2e 2e be 70 e2 1e 3e
       0.08476519 0.90445787 -0.17009994 0.15516067
0000c0 4c 94 84 3e 1c f0 be 3e 7e 95 ac be a6 2c ce 3e
       0.25894392 0.37292564 -0.33707803 0.4026844
0000d0 7a 60 3b be 23 76 7a 3e e6 ae 3f bf 02 1c d4 3e
       -0.18298522 0.24459128 -0.7487625 0.41427618
0000e0 b3 39 6a bd 50 df 99 3c d6 f9 81 3f f1 b6 5b 3f
       -0.057183933 0.018783242 1.0154369 0.8582602
0000f0 78 a7 3f be ef 0a 1f be 6d 31 8f be 4f d4 5b be
       -0.18716228 -0.15531515 -0.27967396 -0.21467708
000100 2c 75 f2 3e fd b2 79 bd 75 56 34 3e c4 d3 a0 3d
       0.4735502 -0.060961712 0.17611106 0.07852891
000110 be ac b9 be c2 18 32 be 03 a5 9b be c3 6d 6a 3e
       -0.36264604 -0.17392257 -0.3039933 0.22893433
000120 cc 5b dc be f5 9d 04 be 58 bd 8a bd b7 fb 91 bd
       -0.43038785 -0.12950881 -0.06774396 -0.07128089
000130 26 cf 3d 3e 65 ea 5f be 55 d0 8a bd 96 1b a6 3e
       0.18536052 -0.21866758 -0.067780174 0.3244292
000140 c7 be ea 3e e0 60 9b 3e 10 35 83 bd de 88 01 bf
       0.45848677 0.30347347 -0.06406605 -0.5059947
000150 85 3d 8d 3e 65 76 03 be c5 4e d2 be 94 55 15 bf
       0.27585998 -0.12838133 -0.4107572 -0.58333707
000160 3c 99 93 be 74 a3 8a bd da 55 05 3e 43 6b 97 3e
       -0.28827846 -0.067694575 0.13021031 0.29574022
000170 28 55 52 3e 55 4c 43 3d 36 7b 66 3e 1e 33 b4 bb
       0.20540297 0.047680218 0.22507939 -0.0054992577
000180 04 20 54 3e f3 e0 db bc c5 be 22 3f 81 c7 98 bd
       0.20715338 -0.026840663 0.6357234 -0.07459927
000190 cf 40 ba be 79 85 40 be 31 a9 9f 3e e4 1a 73 be
       -0.3637757 -0.18800916 0.3118377 -0.23740727
0001a0 7e 57 f2 bc a9 22 1b bf 48 4d c7 bb 7f c3 07 3d
       -0.029582735 -0.6059976 -0.0060822107 0.033145424
0001b0 fd b3 13 3e 65 e5 b3 be 3d d7 57 bd ca 2e 02 3f
       0.14424129 -0.35135952 -0.0526955 0.50852644
0001c0 3d 39 7e 3d 8c 57 a9 bd 1f e8 7e bf 81 0f db be
       0.062066305 -0.08268651 -0.9957294 -0.42785266
0001d0 41 1e f9 3e 30 f2 52 be 09 06 b3 bc ee 2f 42 3e
       0.48655894 -0.206002 -0.021853464 0.18963596
0001e0 f6 dc 6f be 66 2f b6 be e8 e4 fc 3d bc c3 bc 3e
       -0.23424134 -0.35583037 0.12348348 0.36868083
0001f0 a8 eb ca be b5 89 be 3d 9f 8d a0 be 24 5e a7 3e
       -0.39632916 0.09303609 -0.31358048 0.3268901
000200 4e 2d 9c be 03 c0 d3 3e 9d 38 4c bd a2 b3 ee 3c
       -0.30503315 0.4135743 -0.049858678 0.02913839
000210 a8 25 d6 3e c9 73 a4 3d 4a 7d 83 bd 8f 14 f6 be
       0.41825604 0.08029897 -0.06420381 -0.4806256
000220 48 94 06 bf 59 62 16 3f 8f 84 30 bc 54 cd 40 3e
       -0.5257001 0.58743817 -0.010773792 0.18828326
000230 07 7a 84 bd 07 ad 3a 3e 4d ef ac bd b6 df 71 3e
       -0.06468587 0.18230067 -0.084440805 0.23620495
000240 d4 9c 12 3e 83 a1 80 3d 3b 16 30 3e 62 42 a3 3d
       0.14317638 0.06280806 0.1719598 0.07971646
000250 85 35 35 bf 7f 49 c7 be 8a 37 cd 3e 07 70 bf 3e
       -0.7078479 -0.3892326 0.40081435 0.37390158
000260 c1 07 d8 bd 07 f6 1a bf 40 cc 1b 3f c9 de a2 be
       -0.10548354 -0.6053166 0.60858536 -0.31810597
000270 9d 9d 4b be ce 29 c2 3e a0 19 a9 be 68 17 cd 3e
       -0.19884343 0.3792252 -0.33027363 0.4005692
000280 9e 9a 35 3e c8 6e 1a 3e 04 b4 e3 be 37 d2 fe 3d
       0.17734763 0.15081322 -0.4447328 0.12442439
000290 71 5e 86 be 14 23 46 3c bc e2 4c be dc 1b ad 3b
       -0.26243928 0.012093324 -0.20008367 0.005282862
0002a0 f3 d6 82 3a 54 36 f9 bd d3 be 07 be c1 85 aa 3e
       0.0009982273 -0.121685654 -0.13256387 0.3330517
0002b0 ed 34 a5 bd 71 48 a5 3c 82 f8 8c 3e cf e9 31 bf
       -0.080667354 0.020176144 0.27533346 -0.6949739
0002c0 7c c8 c4 3d 4e 63 bd 3e 9f 6f fd 3e 84 94 9b be
       0.09608552 0.36989826 0.49499223 -0.30386746
0002d0 8d 55 2c bf 48 9b f8 3d 4a 87 b8 be 3f ca c3 be
       -0.6731804 0.121389925 -0.36040717 -0.3824024
0002e0 6f d9 7c 3e f4 ec 38 be 98 73 9e be a9 51 16 be
       0.2469232 -0.1805914 -0.30947566 -0.14679588
0002f0 5c b5 16 be cb c2 ed 3d fb 42 91 3c f4 e6 34 3b
       -0.1471762 0.116094194 0.017732134 0.002760348
000300 4d 94 a8 be 6d 66 77 3e ae 1e 36 3e e8 b2 71 3e
       -0.32925645 0.24160166 0.17785141 0.23603404
000310 4c 0e 01 bf 48 d5 bc 3e 7e c5 3e bf e8 c0 4a 3e
       -0.5041244 0.3688147 -0.745201 0.1980015
000320 c3 6b 16 3f 9f 4f cb be 59 44 89 3e e4 be 03 bf
       0.5875818 -0.39709184 0.26809958 -0.5146315
000330 fa 21 90 3e 33 c4 99 be fe ff ed 3c 68 05 52 bf
       0.28150922 -0.300325 0.02905273 -0.820395
000340 82 de d0 3d b0 63 13 3f cc b7 f4 3e 9c cc b3 bd
       0.1019869 0.57573986 0.47796476 -0.087792605
000350 84 44 44 bf 0c 42 1b 3f fb 7a 77 3e 12 2c d1 bd
       -0.76667047 0.60647655 0.24168007 -0.10213484
000360 a2 42 19 bf 53 c0 d0 3e 14 27 d2 be 97 7a 78 bf
       -0.598673 0.40771732 -0.4104544 -0.9706206
000370 fa fe 75 3d 07 91 01 bf 4c 3b 35 bc 98 30 81 bf
       0.060057618 -0.5061192 -0.011061501 -1.0092955
000380 c8 db 84 bc e1 32 b2 be d4 03 6a bd df 2f e7 3e
       -0.016218081 -0.34804443 -0.057132557 0.4515371
000390 f2 e5 09 be c3 a2 c2 3d 73 3e ba be 72 64 34 3f
       -0.13466623 0.095037006 -0.3637577 0.7046577
0003a0 5c a0 32 be 9c 12 8d 3f 59 6e 9d be 9c 45 a4 be
       -0.17443985 1.1021304 -0.3074825 -0.32084358
0003b0 2a 62 af bd 87 4a 0a 3f ff 33 60 be 2e f7 7d bd
       -0.08563645 0.5401997 -0.21894835 -0.062003307
0003c0 64 3d a5 be bc 4c a4 bd 1a 89 1c be ab 9a a9 be
       -0.322734 -0.080224484 -0.15286675 -0.33125815
0003d0 e5 16 ec 3e d3 b8 92 3e 30 f2 fe bd 0a d4 00 3f
       0.46111217 0.28656635 -0.12448537 0.50323546
0003e0 37 10 c0 be 7e dc 78 3b f5 ad 8e bb 86 a2 c6 be
       -0.3751237 0.003797322 -0.0043542334 -0.3879587
0003f0 2b 6f 92 be b4 1d 33 3f 8b 92 ac 3a 3b 3a 92 3e
       -0.2860044 0.699672 0.0013166232 0.2856005

rnn.0.rnn.bias_ih_l0 f4 [256]
000000 3f 29 0a be 9e fb 78 3e 66 ae f0 38 34 4b 2c be
       -0.13492297 0.24314734 0.00011476576 -0.16825563
000010 40 52 42 3e de 77 9d 3e d4 97 28 3d 50 c9 14 3e
       0.18976688 0.30755514 0.04116042 0.1452992
000020 24 73 aa 3e 3b 09 6c 3e 20 b3 bf 3e 21 28 d3 3e
       0.3329097 0.23050396 0.3744135 0.41241553
000030 e5 37 66 3e 99 e7 49 3d 06 e9 95 3e d4 75 92 bd
       0.2248226 0.049293134 0.29279345 -0.0715138
000040 b9 7e 8a 3e b9 e4 dd bc 7b d8 3e 3e 11 0a 80 3e
       0.27049807 -0.027086603 0.18637268 0.2500768
000050 48 dd 59 3f d6 8a 33 be 47 37 76 3e 15 a7 34 3f
       0.85103273 -0.1753343 0.24044524 0.70567447
000060 4e b9 b3 bd 9f 84 ef 3d 6b d0 0e 3d 37 ca 23 3e
       -0.087755784 0.11695217 0.03486673 0.15995108
000070 62 ad b4 3c 85 24 02 3f 17 61 08 3e 60 fa 94 3e
       0.022055332 0.50836974 0.13318287 0.2909727
000080 99 56 73 3e a6 c2 2a be 4d 8a 96 3e e7 47 2f 3f
       0.23763503 -0.16675815 0.2940239 0.6846909
000090 b9 a8 cb bd e3 ad 0a 3e ca 17 31 3e 29 d9 11 3f
       -0.09944291 0.13542895 0.17294231 0.56971985
0000a0 3d a8 83 3d ec 23 f7 3c 7f 26 40 3e bb 24 e4 3d
       0.06428573 0.030168496 0.18764685 0.11139818
0000b0 0a 4e 43 be 90 78 a7 3e 7e 68 8f 3e e2 ed c8 3e
       -0.19072738 0.3270917 0.2800941 0.3924399
0000c0 b7 71 1e 3e b9 0f 74 3e ce 78 c1 3e a6 b5 fb 3d
       0.15473066 0.23834123 0.3778748 0.12290506
0000d0 df 66 d2 3c b4 8b 2b be e4 c1 85 3e 96 15 00 3e
       0.025683818 -0.16752511 0.2612449 0.12508234
0000e0 17 16 b3 bd 48 d5 2b be 60 cf 04 3f e3 21 c3 3e
       -0.08744448 -0.16780579 0.5187893 0.3811179
0000f0 a1 07 8f 3e 7b c0 0f be 9d 99 89 3d a6 4e 5a 3d
       0.27935508 -0.14038269 0.067187525 0.05329766
000100 38 38 86 3c 12 fa 25 3d 55 8e 5f bc b3 0e ab be
       0.016384229 0.04052169 -0.013644774 -0.33409652
000110 97 ca 7c be 1f 7d 68 bd 9a fb 46 be 1a 65 7a bd
       -0.24686657 -0.05675995 -0.19431916 -0.061131574
000120 08 59 c3 be 6a 2a dc bd a1 f5 99 3d c1 10 30 be
       -0.38153863 -0.10750277 0.07517553 -0.17193891
000130 f9 db 0c be 36 0c 9c bc 27 a8 26 bf d2 fc d7 bd
       -0.13755788 -0.019048791 -0.6510033 -0.105462685
000140 39 0e ba bd 37 4f 36 3e cc e7 8a be f9 2b 47 be
       -0.09084744 0.17803656 -0.27129972 -0.19450368
000150 67 01 5d be 4a da 4a bd 9d 34 70 3d 64 b2 c0 be
       -0.21582566 -0.049524583 0.058643926 -0.376361
000160 fa 15 ee 3d e7 04 a8 bc 03 f5 70 be ad 3f 11 3e
       0.116252854 -0.02051015 -0.23530965 0.14184447
000170 cb f9 44 3e e7 73 83 be 04 66 c0 bd 30 bd 26 bd
       0.19235913 -0.25674364 -0.09394458 -0.040707767
000180 ce c7 69 3c 33 ee ad bd e9 f8 70 3e 44 b0 de 3d
       0.014268829 -0.084926985 0.23532452 0.10873464
000190 36 d2 08 3c e7 ba 6d 3e b3 87 a5 3d ac 79 96 3c
       0.008350899 0.23215829 0.08082523 0.018368565
0001a0 7a 11 08 bd a6 20 3e 3d cb cc 84 be 7d c3 7f be
       -0.033219792 0.046417855 -0.25937495 -0.24976917
0001b0 e5 f6 8e be 8e 94 22 3e 39 93 16 3d 06 d8 be be
       -0.2792274 0.15876982 0.036761496 -0.37274188
0001c0 a2 bf b4 bc f4 0a a6 be e6 3e ce 3c 5d d3 63 be
       -0.022064034 -0.32430232 0.025176477 -0.22248597
0001d0 f9 da 63 3e f4 17 b0 bd 3d 0b 41 bc 61 15 09 be
       0.222515 -0.08598319 -0.011782465 -0.13387062
0001e0 4d 50 17 be 07 fe 1f 3e 73 5f bf be eb 7e 18 be
       -0.14776726 0.15624247 -0.3737751 -0.14892165
0001f0 b2 00 2a be aa 07 e8 bd 38 37 a9 3d aa d5 50 bd
       -0.16601828 -0.11329587 0.08262485 -0.050985016
000200 04 37 75 3d 8a 7e ab 3d ca 00 1f bd 4d 3a cc 3b
       0.05986692 0.08373745 -0.038819112 0.006232536
000210 79 78 8b bd 18 c4 29 bd da cb 8b bc 64 ce c2 bd
       -0.06810088 -0.041446775 -0.017064977 -0.09512022
000220 d6 50 0a be 34 68 ab 3d c6 fb 18 3e df 9b cc 3d
       -0.13507399 0.083694845 0.14939794 0.099906676
000230 3e 85 5c 3c 3f 1e c4 3d c9 f0 4d 3d 3a 23 e4 3d
       0.013459502 0.095760815 0.05027846 0.111395314
000240 a8 95 d9 bd de 97 5c bc 94 91 a6 3d ce 75 52 3d
       -0.10624248 -0.013463942 0.081332356 0.05138188
000250 79 00 9d 3d 84 92 35 3d b7 ff 33 be 15 b1 d5 bd
       0.07666106 0.04432918 -0.17578016 -0.10434166
000260 71 33 b0 3d 18 fb fd bd e8 6f b5 3c 57 4e e3 3d
       0.08603562 -0.12401408 0.022148088 0.110989265
000270 cb bc c2 bd e7 49 0c be 4d 59 03 bc 03 f1 c6 3d
       -0.09508666 -0.13700067 -0.008016896 0.09713938
000280 6b b2 b4 3c e9 6d 26 bd 43 97 96 3d 59 0f a6 bd
       0.022057733 -0.040632162 0.0735307 -0.08108396
000290 da 3c 2e 39 61 55 f2 3d f4 77 fc bd 87 31 83 bd
       0.00016616602 0.11832691 -0.12327567 -0.06405931
0002a0 b1 08 80 3d d9 73 0e 3d b5 bf 9b 3c f0 9d 7c 3d
       0.06251658 0.03477845 0.019012311 0.06167406
0002b0 50 d9 50 bd 57 f3 91 bd db 10 cd 3d 52 1a 45 3e
       -0.050988495 -0.071264915 0.100129806 0.19248322
0002c0 31 e6 d6 bd 48 4e ec 3d 0f 64 1e bd 0a 1e ba bd
       -0.10493124 0.115383685 -0.038669642 -0.09087761
0002d0 75 02 11 bd 02 c9 82 3d a2 83 1e bd bc a4 69 3c
       -0.035402734 0.063859954 -0.038699754 0.014260467
0002e0 9e 5f 14 3b ac a9 90 bd de 65 31 3c ef 0f cf bd
       0.002264 -0.07063612 0.01082751 -0.10110461
0002f0 a1 e5 09 be 72 22 02 be 2e ee 84 bd 6b af 0e bd
       -0.13466503 -0.12708452 -0.06490742 -0.03483526
000300 3d 1c 55 bd 6f 3b 4a 3e 4e 62 19 be 94 a0 4c be
       -0.052028883 0.19749235 -0.14978907 -0.1998313
000310 30 60 6e 3d 49 98 cb 3d 09 4a c9 3d b2 30 e6 bd
       0.0581972 0.099411555 0.09828574 -0.11239757
000320 e4 5d 1e 3e ad b8 91 3e db 29 26 3e 47 a9 76 3e
       0.15465504 0.2846121 0.16226904 0.24088012
000330 16 ce e7 3d 6c 8a b5 3d c0 fb ba 3e eb f0 ee bd
       0.11318605 0.088642925 0.36520195 -0.11667045
000340 a8 cd 2f 3e 31 2c 97 3d 81 5e 55 3d 43 bc d7 3e
       0.17168295 0.07381476 0.05209208 0.4213582
000350 f9 75 6e 3e c6 06 c1 be e4 1d 88 3d 24 45 0b 3f
       0.2328719 -0.3770048 0.06646326 0.54402375
000360 dc 7e 9b bd 72 72 1e bc cd f1 d7 3d 09 94 92 3e
       -0.07592556 -0.009670841 0.10544167 0.28628567
000370 50 63 85 3d 90 9e 6f 3e 36 7a 7b 3e 00 ec f0 3c
       0.06513083 0.2340033 0.24558339 0.029409409
000380 c9 bf 26 3d 9d 5c cc bd b1 8b f9 3e 21 47 36 3f
       0.040710244 -0.09978602 0.4873939 0.71202284
000390 bf 82 06 be f3 98 9a 3d 4e 35 32 3e 7f 83 1a 3e
       -0.13135813 0.07548704 0.17403147 0.15089224
0003a0 e3 4f 16 3e 36 1c c5 bd 0e 83 bf 3d 3e 65 ad 3b
       0.14678912 -0.096245214 0.093511686 0.00529161
0003b0 7b ca 4a bd 32 e0 93 3e 5e ef 54 3e f2 06 24 3e
       -0.049509507 0.28881985 0.20794436 0.16018274
0003c0 a3 33 58 3e d2 eb 96 3e cf 6f 30 bd cf e5 e3 3c
       0.21113448 0.29476792 -0.04307538 0.027819542
0003d0 6b 9d 54 bd 0d 75 2b bb 7e 62 de 3d 9c 94 50 be
       -0.051907938 -0.0026162297 0.1085863 -0.2036919
0003e0 2d 97 5b bd a8 5d 95 be 97 38 23 3f a0 89 ff 3d
       -0.05361097 -0.29173017 0.63758224 0.12477422
0003f0 30 23 d1 3e 8b 5f af 3d 2e 3c 97 bd f6 85 62 3c
       0.40847158 0.08563145 -0.07384525 0.013825884

rnn.0.rnn.bias_hh_l0 f4 [256]
000000 06 ad d8 bc b1 8f d3 3e eb b7 93 3d 3c ca 99 bd
       -0.026449692 0.41320565 0.07212814 -0.07509276
000010 19 a4 53 3e c2 58 83 3e 2b d3 80 3d 0b ee ed bb
       0.20668067 0.25653654 0.06290277 -0.007261043
000020 09 7d 99 3e 44 a9 89 3e 15 2a 8a 3e 9d 64 db 3e
       0.29978207 0.26886952 0.2698523 0.428502
000030 d7 87 ca 3d f1 36 73 3d 72 ab 04 3e 68 b9 01 3c
       0.09889191 0.059378568 0.12956026 0.007917739
000040 38 35 ae 3e 71 f0 12 3e 6b a9 28 3d ab 8c d3 3e
       0.34024978 0.14349534 0.041177195 0.4131826
000050 e2 55 32 3f 3d ed 19 be 95 19 d7 3d c8 b4 4d 3f
       0.69662297 -0.15031905 0.10502926 0.80353975
000060 a9 51 9d bd 90 0b 24 3e fe b1 12 3c 06 36 ac 3e
       -0.07681591 0.16020036 0.008953569 0.33634967
000070 2a bb 8c bd 34 85 de 3e 33 88 be 3e 13 2c 94 3e
       -0.06871636 0.43461 0.37213287 0.28939876
000080 48 68 98 3d de b6 aa bd ea e7 fc 3e c1 c4 2e 3f
       0.07441765 -0.083356604 0.49395686 0.6826897
000090 fd 32 57 be 11 a1 74 3e fa 6c 97 3e 91 3c ed 3e
       -0.21015544 0.23889567 0.2957533 0.4633527
0000a0 8c 44 ee bd 1d 80 16 3e fb 25 39 3e a8 0c 1b 3e
       -0.11634168 0.14697309 0.18080895 0.15141547
0000b0 39 b3 86 bd d4 c0 71 3e 34 1f 3a 3e 7d 96 b8 3e
       -0.06577153 0.23608714 0.18175966 0.36052313
0000c0 7c 50 bb 3d 82 b2 a3 3e 03 43 6b 3e b0 4b 2a 3d
       0.091462106 0.31972128 0.22974782 0.041576087
0000d0 da 83 60 3e 8b 35 31 be ee b9 e3 3d 7d 45 fb 3d
       0.21925297 -0.17305581 0.11119448 0.12269113
0000e0 e7 52 9c 3d 14 4f aa be 05 a3 3b 3f d3 f8 94 3e
       0.07633 -0.33263457 0.73295623 0.29096088
0000f0 56 1e a3 3e 44 b2 45 3c da 9f 05 3e 23 83 dd 3d
       0.31859082 0.012066428 0.1304926 0.10816028
000100 b3 a9 c5 3c 3d 06 2f be c6 a6 cd 39 4d 86 94 be
       0.02412877 -0.17092223 0.00039224903 -0.29008713
000110 97 45 2a be 22 43 4d 3d 2b 2b 2e bb eb 26 88 bd
       -0.16628109 0.05011285 -0.0026576023 -0.06648048
000120 3f fa d1 be ed bc b6 3c ce 38 81 3e 22 db ce bc
       -0.41011235 0.022306884 0.2523865 -0.025250975
000130 04 23 86 be 1c 9e 9d 3d dc 64 27 bf a4 81 27 be
       -0.2619859 0.076961726 -0.65388274 -0.16358048
000140 7c 3f 19 3d 6f 9c 19 3e b7 8c 27 be 96 7f 4e be
       0.03741406 0.15001081 -0.16362272 -0.20165858
000150 88 db 9a be e1 3a ba bd c8 e4 5e 3d df 96 c2 be
       -0.30245614 -0.090932615 0.0544174 -0.3800573
000160 b9 74 3e bd c5 a5 21 bc fd bc 8b be 19 6f 03 3e
       -0.046498034 -0.009866183 -0.27292624 0.12835349
000170 ec b5 c4 3d c5 56 3d be 7c a7 9d 3c 6d d6 14 3e
       0.09605011 -0.18490131 0.019244902 0.14534922
000180 8c 13 a5 bd 62 12 1c be 48 3d 65 3e 08 f3 5c 3e
       -0.08060369 -0.15241387 0.22386658 0.21577084
000190 03 09 d6 3d b6 b7 e9 3d b7 28 36 3e 96 3b 3f 3e
       0.104509376 0.11411993 0.17788969 0.18675074
0001a0 3b 70 53 bb 6f 1f 10 bd 14 51 a5 be b7 fb 9b be
       -0.003226294 -0.035186227 -0.3228842 -0.3046548
0001b0 22 4a a4 be 33 ae c3 3d ba 3a e7 bd bb bb aa be
       -0.3208781 0.0955471 -0.11290498 -0.33346352
0001c0 23 44 87 bd 0b 1d 95 be 83 96 05 3d df bf af be
       -0.06604793 -0.2912372 0.032614242 -0.34326074
0001d0 7c cc 78 3d 3e cb 76 3c 50 1d 72 bd be 62 3a bd
       0.060741886 0.015063105 -0.059109986 -0.045504324
0001e0 7f f8 74 bd 2d 35 9b bd 63 13 f7 be dd 7f 15 3d
       -0.059807297 -0.07578502 -0.48256978 0.036498893
0001f0 32 6b 75 be 45 f5 26 bc 87 93 7a 3e 25 b2 95 3d
       -0.23966673 -0.010190313 0.2447034 0.07309369
000200 80 b2 0c be 0c 61 a2 3c 57 ac ce 3d 7b 84 be 3d
       -0.13739967 0.019821666 0.10091465 0.093026124
000210 a1 6d bf 3d 19 c2 f4 bd ec f4 88 3d 6a 37 a6 bd
       0.09347082 -0.11951084 0.0668734 -0.08116038
000220 03 ce 1d 3d cc 53 6d 3c 86 c5 22 bd a3 d5 f8 bb
       0.038526546 0.014485311 -0.039739154 -0.007593827
000230 ea 0d b3 bd 7d 5d 65 3d a4 36 2c bc 59 78 60 bd
       -0.08742888 0.05599736 -0.010511074 -0.054802272
000240 1e cb 60 3c f9 2e 6e 3d 7c cb 3e bd 11 f1 11 bc
       0.013720302 0.058150265 -0.046580777 -0.008907572
000250 02 4e 2d 3d d4 a3 36 be 77 e2 92 bd 7f 50 47 bd
       0.042310722 -0.17835933 -0.07172101 -0.04866075
000260 42 98 45 3e 83 0e 7e bd c5 85 fd 3d 26 86 4a 3d
       0.19296363 -0.06202556 0.1237903 0.04944434
000270 b6 90 03 be 15 3b 2b bd 0f 48 71 bd 34 a6 f0 bd
       -0.12848172 -0.041804392 -0.05890661 -0.11750451
000280 47 2f e5 3d c4 31 e0 bc ca 20 43 bd 19 a3 4e 3d
       0.11190658 -0.02736748 -0.047638692 0.05044851
000290 cd b7 83 bd da 72 46 3e d4 3b ce 3b 0e 03 e4 3d
       -0.064315416 0.1937975 0.006293753 0.11133395
0002a0 24 2c db bd 59 be 3a be f9 d1 0f 3d 91 f9 92 3d
       -0.107017785 -0.18236674 0.035112355 0.07176507
0002b0 11 c7 9f bd 37 d5 26 be 91 ab fc 3d c4 78 73 3b
       -0.07801641 -0.16292273 0.12337411 0.003715084
0002c0 90 51 90 bd 80 0c 04 be bd 1f 10 be 8d 98 58 bc
       -0.07046807 -0.12895393 -0.14074607 -0.013219965
0002d0 7d 87 87 bd 07 f1 c5 bd 66 e5 2b bd 32 76 23 be
       -0.06617639 -0.09665113 -0.04196682 -0.15963057
0002e0 8e 02 bb 3d d0 c4 26 bc b6 e3 c2 3c 7e 60 8d bd
       0.09131347 -0.01017876 0.023790222 -0.0690317
0002f0 bd e5 bd 3c fd 4d 8f bd ea 03 24 be f7 eb 8a bd
       0.023180837 -0.06997297 -0.16017118 -0.06783288
000300 d2 43 50 be 4d cc bb 3e 23 06 90 3d 1b ec 69 bd
       -0.20338371 0.36679307 0.070324205 -0.057109933
000310 a6 35 29 3e f7 c5 8a 3e 2e 8f 26 bd 47 55 9e bd
       0.16524372 0.2710416 -0.04066389 -0.07731109
000320 3a 81 c0 3d d0 23 84 3e 55 9c 96 3e 76 f0 85 3e
       0.09399648 0.25808573 0.29416147 0.2616002
000330 6c d0 b2 3d e6 16 cc bd 60 a1 35 3e 08 e3 08 be
       0.087311596 -0.09965305 0.17737341 -0.13367856
000340 12 84 20 3d 71 18 cc 3d ee d4 de 3d 5e 99 83 3e
       0.039188452 0.09965599 0.10880457 0.25702947
000350 eb d9 9c 3e 10 ec c0 be 57 e3 67 3e a3 7c 22 3f
       0.30635008 -0.376801 0.22645317 0.6347143
000360 5c 66 17 bd 1a 39 3a 3e 58 4f 2c bd 5e 38 1d 3e
       -0.036962852 0.18185845 -0.042067856 0.15353534
000370 92 16 22 3d d1 fa 3c 3e 75 8d 8a 3e 45 d8 0f 3e
       0.039572306 0.18455054 0.27061048 0.14047344
000380 ed 88 1e 3e ad 72 4d 3b ca c4 bd 3e d2 6a 04 3f
       0.1548192 0.003134887 0.370642 0.51725495
000390 53 e2 61 be 3a d8 e7 bc d0 47 9d 3e 7a ac c9 3e
       -0.22058992 -0.028301347 0.3071885 0.39389402
0003a0 63 5b be bc 93 b3 9d bd 6f e2 3b 3e f9 ae 0a 3d
       -0.023236936 -0.07700267 0.18348096 0.033858273
0003b0 98 34 41 be e2 4b 1b 3e 65 2d 40 3e c3 bc 83 3e
       -0.18867719 0.15165666 0.18767317 0.2572995
0003c0 af 92 d0 3c e3 4f 49 3e 79 7f ff bc b7 ee 8e bd
       0.02546057 0.1965938 -0.031188713 -0.06979125
0003d0 05 ee 4c 3d f5 92 88 3c d0 85 10 3e 7d eb 91 be
       0.05003168 0.016671637 0.14113545 -0.28499976
0003e0 5a 07 1a bd 96 6a 97 be 9b c7 23 3f a8 cb 92 3e
       -0.037604667 -0.29573506 0.6397645 0.28671002
0003f0 d6 dd 57 3e 90 73 fb 3d 19 d5 13 bd 84 92 bd bd
       0.21080717 0.12277901 -0.036091898 -0.09256461
