model/ne2wx/ne_pretrain_best.pt (torch, 320767 bytes, 20 tensors)

cnn.conv0.weight f4 [8, 4, 3, 1]
000000 eb c9 0e 3d b3 a7 43 3e 2e a9 47 be 1f 05 8f be
       0.034860533 0.19106941 -0.1949813 -0.27933595
000010 1a 9c 39 be f3 ac 89 3b f6 ec 1c be a9 d5 f8 3d
       -0.18125954 0.0042015254 -0.15324768 0.121501274
000020 a2 fd dd bd b4 1e cf 3d fe 0f 87 bd ab dd 08 bd
       -0.10839392 0.10113278 -0.06594847 -0.033414524
000030 0e d2 d5 be 88 84 9d be 45 64 62 be fd fa b6 3d
       -0.41761822 -0.30765176 -0.22108562 0.08934591
000040 f7 e6 46 3e 38 7f 82 3e 54 c1 a4 bd 83 b8 3e 3d
       0.19424044 0.25487685 -0.08044687 0.046562683
000050 5b 68 b9 3e 2b 78 3b 3f bb 22 e3 3e 37 ed 17 3f
       0.3621243 0.73230237 0.44362435 0.59346336
000060 d7 9b 80 3e 85 79 b6 3e b9 b8 16 3f 61 d5 3e bf
       0.25118896 0.35639587 0.58875614 -0.7454434
000070 13 65 24 bf 40 cd 04 bf a4 3b d8 3d 68 bf eb 3e
       -0.64216727 -0.51875687 0.105582505 0.4604447
000080 9c a8 15 ba 86 60 f2 bc fd fa 9c bd 1e e9 fb bd
       -0.00057090237 -0.029587042 -0.0766506 -0.12300323
000090 c3 5f eb 3e a6 59 3b 3f 2c 6c 00 3f 9f cb 96 3c
       0.45971498 0.7318367 0.5016506 0.018407641
0000a0 37 ed d7 bd 94 ad 89 be 0a ec d1 be b9 b4 25 bf
       -0.10543292 -0.26890242 -0.41000396 -0.64728886
0000b0 89 1c 59 bf 3d cb ae 3e 0a bc d9 3e 01 df 92 3e
       -0.84809166 0.34139434 0.42526275 0.28685763
0000c0 a8 d9 38 be e7 85 91 bd 91 33 dd 3d 38 3c c3 3e
       -0.1805178 -0.07105618 0.10800851 0.3813188
0000d0 dc a5 56 3e b5 b7 09 3e 2e d6 78 3d 22 f7 c8 be
       0.20961708 0.13448985 0.060751133 -0.39251047
0000e0 7a 98 72 be 1e 1d 80 be d4 19 5c be 74 e9 27 be
       -0.23690978 -0.25022215 -0.21494228 -0.16397649
0000f0 35 d2 46 3c f5 e5 a4 bb a3 74 9a be e8 1a 17 3e
       0.012135078 -0.005032296 -0.30167112 0.14756358
000100 83 72 60 3e 3f 51 cc 3c d6 da 96 3e 09 cd 89 3e
       0.21918683 0.024941085 0.29463834 0.26914242
000110 ec 55 94 3e f2 ea c4 3e 53 18 8e bd 1b f6 7c 3d
       0.28971803 0.384605 -0.06938233 0.061758142
000120 0b bc ff 3d 0b d9 7d 3e bb e8 82 3e 92 d7 ac 3e
       0.12487038 0.24789827 0.25568184 0.33758217
000130 42 e5 12 3e 68 18 26 be 0a 83 27 bd bf 5b 60 be
       0.14345267 -0.16220248 -0.040896453 -0.21909998
000140 76 9c b0 be 09 ce 3e 3d 7c dc 49 3c ca 85 fb be
       -0.3449437 0.04658321 0.012320634 -0.4912551
000150 95 1b 33 3e 5c ad ae 3d ac 36 d5 3d 3a da 59 be
       0.1749099 0.085291594 0.104108185 -0.21274653
000160 f5 4b d6 3c 96 24 85 be 29 f7 a2 bd ed 06 56 bc
       0.026159266 -0.26004475 -0.07957298 -0.013063175
000170 2c 42 7e 3d a6 bf 6b be a2 7c 1f bf f9 67 06 bf
       0.062074825 -0.23022327 -0.6229955 -0.525024

cnn.conv0.bias f4 [8]
000000 10 a7 9f 3e eb 3c 93 3d c4 2a e4 be 6f a6 e0 bd
       0.31182146 0.071893536 -0.44563878 -0.10969245
000010 ee 48 6e 3d 10 83 aa 3c eb 21 76 be a5 a5 8d 3d
       0.05817502 0.020814449 -0.24036376 0.0691636

cnn.conv1.weight f4 [16, 8, 3, 1]
000000 75 06 b6 be 17 c4 7b be 66 ec db be 95 d1 d4 be
       -0.355518 -0.24586521 -0.42953795 -0.41566148
000010 9a f6 20 bb 48 d5 43 3e d5 9b f7 be 62 87 ca be
       -0.0024561048 0.19124329 -0.48361078 -0.39556414
000020 df c8 97 bf aa eb 73 3f d0 55 87 3e 18 5b 53 be
       -1.1858176 0.9528147 0.26432657 -0.20640218
000030 82 29 9c bc 04 8c 70 3d 4d e0 20 3e 38 6d 90 3a
       -0.019062761 0.05872728 0.15710564 0.0011018878
000040 ef b9 13 3e b2 b8 91 3c 3c 46 9d 3e 54 93 35 3e
       0.14426397 0.017788265 0.30717647 0.17731982
000050 c0 ba 5f be 88 64 2c be c2 77 5d 3c 2a e9 81 bc
       -0.21848583 -0.16835225 0.013517322 -0.015858252
000060 52 52 fe be 5a 8b 1c bf e8 45 03 bf 35 75 ef bc
       -0.4967218 -0.61150134 -0.51278543 -0.029230693
000070 86 f1 99 be 01 f0 25 bd 85 75 2a bf 32 6f 91 3e
       -0.3006708 -0.04051209 -0.6658557 0.28405148
000080 c3 db 17 3f 65 3a 90 bc 39 95 bd bc 9c 61 a5 3d
       0.59319705 -0.01760597 -0.023142444 0.08075258
000090 71 cd 6a 3e 78 c8 48 3e 71 bc ab 3e 53 f8 e0 3d
       0.22929932 0.19607723 0.33542207 0.10984864
0000a0 69 22 76 bd e2 ae fb bc fe 6f 8c 3e 11 d1 c9 3d
       -0.06009141 -0.030723039 0.27429193 0.098543294
0000b0 89 a9 b6 bc 29 93 a7 3c cb e6 09 bd 6f 22 0f be
       -0.022297638 0.020455914 -0.033667367 -0.13977979
0000c0 b1 d1 29 bd 85 29 e5 3d a1 ab df 3d ad 96 49 be
       -0.041459743 0.1118956 0.109214075 -0.19686384
0000d0 87 62 02 3e 05 90 23 be 31 c2 30 bd 9e 81 a9 bd
       0.12732898 -0.15972908 -0.043153945 -0.08276676
0000e0 50 0b 21 bd 41 32 25 bd 1a d8 3b be 0a c8 34 be
       -0.03931743 -0.04033113 -0.18344155 -0.17654434
0000f0 ea d0 12 bd a2 1f b9 ba 3c 5a c6 bd f9 5f 97 3d
       -0.035843767 -0.0014123807 -0.096851796 0.07391352
000100 6c 28 3f be 01 73 8e bc 5f 1c 34 3e 48 06 b2 bd
       -0.18667763 -0.017388823 0.17588948 -0.08692604
000110 9f f7 38 3e 5b 83 96 3d 67 3a 3d be c7 56 01 3e
       0.1806321 0.07349273 -0.1847931 0.12630759
000120 a5 80 1f 3f c1 d9 29 3f 0a 3f 8a 3f 1b 0e 56 3d
       0.6230567 0.6634789 1.0800488 0.052259546
000130 59 c6 4a 3e 04 55 92 bd 85 d4 02 3f a3 49 1b 3f
       0.19802226 -0.07145122 0.5110553 0.60659236
000140 7a 86 55 3c 3d 7e 83 3d 7b ea f4 bd 10 cb 8f be
       0.01303255 0.064205624 -0.11958786 -0.28084612
000150 f3 da 3a be 80 af bd 3d 5c 64 02 3e 43 c9 40 3e
       -0.18247585 0.092619896 0.12733597 0.18826775
000160 40 3b d9 bd db db 5e 3d 0a d5 9f be 44 8b b0 be
       -0.10607004 0.05440889 -0.31217223 -0.3448125
000170 85 54 d0 be bc 99 41 3e 11 95 42 be e4 6e 7b be
       -0.40689483 0.18906301 -0.19002177 -0.2455402
000180 0d 7c a4 3d 18 26 0f 3e 72 1e db be 99 f3 f4 be
       0.08031473 0.13979375 -0.42796665 -0.478421
000190 9d ac 1d 3e 14 9c 9c 3e a1 11 51 bf d0 a7 2d bf
       0.15397878 0.30587828 -0.81667525 -0.67834187
0001a0 66 d9 e7 be 8c 17 69 be d6 89 7f 3e d1 99 c3 3e
       -0.4528305 -0.22762889 0.24954924 0.3820329
0001b0 14 91 eb bd 68 c5 80 be 23 ad a5 be b6 98 42 3e
       -0.11502281 -0.2515061 -0.32358655 0.19003567
0001c0 2d 59 1a 3c 88 65 e1 3d 1b b1 05 3e b0 9f 31 bd
       0.009420675 0.11005694 0.13055842 -0.04336518
0001d0 1e 45 d0 3d d1 31 3b 3f 78 14 09 3f 81 ae 91 3e
       0.10169433 0.7312289 0.5354686 0.28453448
0001e0 fa 21 45 be 63 d2 c7 3d 31 42 1b be 53 a8 19 be
       -0.19251242 0.09756925 -0.15161969 -0.15005617
0001f0 5a a3 11 be 73 d4 fe bd 8e b5 ce 3a c6 76 50 3e
       -0.1422247 -0.12442865 0.001577066 0.20357808
000200 f3 a1 97 bd 0c 07 76 3e 94 d2 29 3e ac 5f 4c be
       -0.07403936 0.24026126 0.16584235 -0.19958371
000210 ce 0e 4e bd d7 76 a1 be f4 04 7f be 89 2c 79 3e
       -0.050307088 -0.3153598 -0.24904233 0.24333395
000220 5b 1f 8a 3e 48 f6 b3 3e fe 6b 1f bd 28 f5 90 bb
       0.26977047 0.35148835 -0.03892135 -0.004423756
000230 bc 34 87 3d 7e b0 a4 bd d4 eb 77 3e 99 9e b3 bd
       0.06601855 -0.08041476 0.24211055 -0.087704845
000240 8d 13 03 bf c0 55 17 bf 6d 1a 40 bf 50 b2 cb bd
       -0.5120171 -0.5911522 -0.7504032 -0.0994612
000250 ba 28 e6 bd 68 9a e5 be 2b 1a 2b 3e 56 a3 68 3e
       -0.11238237 -0.44844365 0.16709201 0.22718558
000260 46 fb 28 3e d7 da 40 be 64 b1 de be 61 47 a3 be
       0.16502103 -0.18833481 -0.43494713 -0.31890395
000270 81 6c 39 bd f2 c8 2f 3e 2b 5d 20 3e f4 8c 33 3e
       -0.045269493 0.17166498 0.15660541 0.17534238
000280 33 08 e6 3d 36 9a 89 bc cc 2f 18 bd 80 ae 03 3e
       0.112320326 -0.016797166 -0.037154958 0.12859535
000290 d5 0a ac 3e 4d ba e9 be b9 a5 00 bf 77 01 0b bf
       0.33602014 -0.4564995 -0.5025287 -0.5429911
0002a0 c2 b9 58 be 41 cf d2 3c 8e d6 07 be bc f6 49 be
       -0.21164611 0.025733592 -0.1326544 -0.19723028
0002b0 c4 39 28 3e 01 96 16 be f9 3a be bc fd 88 6f 3d
       0.16428286 -0.1470566 -0.02322148 0.05848025
0002c0 91 17 d5 3b 21 54 04 be e6 1d 20 be dc 34 2c 3e
       0.0065030535 -0.12922718 -0.15636405 0.16817039
0002d0 1c 25 2f 3c 2b 50 16 3e 71 5b ba bd bf f8 19 3d
       0.01069 0.14679019 -0.09099472 0.03759074
0002e0 e3 bc 8d bd fe 6a 01 bd e4 0a 18 be 11 04 38 3d
       -0.06920793 -0.031596176 -0.14847904 0.044925753
0002f0 b3 bf 25 3d ec 3c 94 bc ab 48 74 bd fa c6 0e be
       0.04046602 -0.018095456 -0.059639614 -0.13943091
000300 82 8c 10 3e 13 9a 1b be 56 42 ab 3d cd 91 8c bd
       0.141161 -0.15195493 0.08362262 -0.06863747
000310 a7 b1 c9 bd 2c 33 16 3d 35 28 d9 bd c8 a3 40 3d
       -0.098483376 0.036669895 -0.10603372 0.047031194
000320 4c 31 24 3d 8e 32 1b be 4c 35 0b 3d e0 0e b2 3d
       0.040086076 -0.15156004 0.033986375 0.086942434
000330 c5 79 a5 3d 12 7e d2 bc c6 5a 2b be 16 e3 00 bd
       0.08079866 -0.02569488 -0.16733846 -0.031466566
000340 d0 30 91 3d 17 89 98 bd b6 ae 9e 3d 9b 33 0b 3e
       0.07089388 -0.07448023 0.07748167 0.13593905
000350 95 48 da bd 28 ed 03 3b 99 dc ac 3d f0 0f 83 3c
       -0.10658375 0.002013037 0.08440513 0.01599881
000360 d9 cd 63 bf 31 99 61 bf f1 80 92 bf eb 3c d9 3e
       -0.88985974 -0.88124377 -1.14456 0.4242929
000370 94 ae 37 3d f9 07 3e be bc bd 09 3f a8 3c 72 3e
       0.044844225 -0.18557729 0.53805137 0.23655951
000380 b5 7c 5d 3e 74 2f cc be 48 3f e0 be 59 ac ae be
       0.21629603 -0.39879954 -0.4379828 -0.34115866
000390 f1 cb b9 3e 50 66 91 3e e3 45 c4 3c b1 15 4b 3e
       0.36288407 0.2839837 0.023959106 0.19832493
0003a0 b7 7b 6d 3e 6d 6e 85 3e 09 b8 6a 3e 86 fc 76 3e
       0.23191725 0.2606081 0.22921766 0.24119768
0003b0 35 75 88 3d 61 f1 a9 3d 63 1b a0 3e 45 d3 91 3e
       0.066629805 0.082979925 0.31270894 0.28481498
0003c0 af 8d b1 3e 38 4c 32 3f f4 3b 2f 3f d8 7b 8d 3d
       0.34678409 0.6964755 0.68450856 0.06908387
0003d0 6d f6 2b bd ed e5 33 be ae 0c 94 be 9c 26 47 3e
       -0.041983057 -0.17568178 -0.28915924 0.19448322
0003e0 7f 28 96 3e 10 e0 c1 3e 1a 4a 61 3e 74 e0 3f 3e
       0.2932777 0.3786626 0.22000924 0.18737966
0003f0 b1 c9 1e be 5a 66 d3 3a e6 4f 84 be 4e e6 c6 bd
       -0.15506627 0.0016128526 -0.25842208 -0.09711896

cnn.conv1.bias f4 [16]
000000 02 12 5d bd 6f b7 a4 bd 25 70 4d bd e7 87 fd 3d
       -0.05397225 -0.080428 -0.050155777 0.12379437
000010 0e 72 25 3e fb 70 4c bd 63 22 01 3e e6 72 35 bd
       0.1615679 -0.049912434 0.12610774 -0.04429903
000020 67 26 2f be c5 8f ef bd 8a 76 17 3e 1c 52 0c 3d
       -0.17104493 -0.11697344 0.14791313 0.034257993
000030 8a 4a 39 be 79 88 86 3e da 22 48 3e 4c 94 4b 3e
       -0.1809484 0.26275995 0.19544545 0.1988079

cnn.conv2.weight f4 [64, 16, 3, 1]
000000 82 25 7e 3e 61 a2 95 3b 9d d4 54 3d 1f eb 91 3a
       0.24818996 0.004566476 0.051960576 0.0011132694
000010 8b a4 d1 bd 54 2a 39 3d 1c 19 2a bd 97 c2 b6 3d
       -0.10236462 0.045206383 -0.041527852 0.08923834
000020 74 08 24 bd c9 5b 09 bf c6 de 8e bf ee 7f fc 3e
       -0.040047124 -0.5365568 -1.1161735 0.49316353
000030 73 3b d7 3d 98 d3 79 3e e8 b2 76 3e 71 aa 0e 3c
       0.10509386 0.24397123 0.24091685 0.008707629
000040 f9 b1 7d 3d 1c 5f 07 3d ee 8f 89 3d 24 f2 15 3e
       0.061937306 0.033049688 0.067169055 0.1464315
000050 c7 34 1b 3d 68 de 61 bd 49 14 1a 3e 63 e3 b8 bc
       0.03789213 -0.055143744 0.150468 -0.022569364
000060 85 9e ce b9 ef 37 8f bd 87 8c 13 3e 12 61 08 3d
       -0.00039409488 -0.0699309 0.14409076 0.0332957
000070 b9 cb b4 bd 08 4c c9 bc 21 6e 2b be af 22 c6 be
       -0.088279195 -0.024572387 -0.1674123 -0.38698336
000080 63 1f 50 3d 65 17 41 be 97 0e c7 be a6 30 4e 3e
       0.050811183 -0.1885658 -0.3887832 0.20135745
000090 60 b8 59 be 25 88 69 3e ad b3 87 3e 00 5f b9 be
       -0.2126174 0.22805841 0.2650427 -0.36205292
0000a0 e3 ac db 3e 23 b7 35 3f 50 f0 5d be 78 df 6a be
       0.4290534 0.7098257 -0.21673703 -0.22936809
0000b0 2f a7 62 bf 84 da ba 3d b3 a5 4f be ae eb 27 be
       -0.8853635 0.0912371 -0.20278053 -0.16398498
0000c0 3c a4 11 3e 55 2d c2 bd fe 92 c1 3c 02 aa e1 3b
       0.14222807 -0.09481303 0.023629662 0.0068867216
0000d0 a8 dc e2 bc 7e d6 09 bd 1e d4 bb 3d 26 10 e2 3b
       -0.027693108 -0.03365182 0.091713175 0.0068988977
0000e0 e0 e6 0f be 49 bc c8 bd 9c aa 4f bd c8 56 9e 3d
       -0.14052916 -0.098015375 -0.050699815 0.07731396
0000f0 a9 16 f3 bd 42 eb d0 3d a5 0d 8b bd 04 51 d4 bc
       -0.118695565 0.10201122 -0.06789712 -0.025917538
000100 53 9f e7 3d 90 92 94 3d d0 59 b7 3d cf fd 45 3d
       0.113096856 0.07254517 0.08952677 0.048337754
000110 80 42 a4 bd e9 1f c4 bd 48 f3 2f bc 05 a7 f4 3d
       -0.08020496 -0.09576399 -0.010739155 0.11945919
000120 b1 6b 46 bd 1b 11 09 be 39 5a 72 3d 4e 16 cc 3d
       -0.048442546 -0.13385431 0.059168074 0.09965192
000130 30 43 98 bd 31 c1 12 be bf 4a 14 be d3 cf 8d 3c
       -0.0743469 -0.14331509 -0.14481638 0.017311012
000140 c1 48 1c bd 4f ca cd bd d7 d4 e8 ba 8e 11 e6 3c
       -0.03815532 -0.10048353 -0.0017763627 0.028084543
000150 54 19 eb 3d 4d 80 e5 3d a5 af ca bc 03 66 02 be
       0.1147944 0.11206112 -0.024741957 -0.12734227
000160 e9 d4 05 be 62 16 10 3e 45 d6 18 3d 61 b5 b2 3c
       -0.130695 0.14071038 0.03731372 0.021815004
000170 c1 eb 25 be 4f 47 ac 3d d7 64 b8 3d 42 fd a3 3d
       -0.16203214 0.084120385 0.09003609 0.080072895
000180 42 d4 12 be f6 09 a4 bd ad 9c 00 be 8a 40 e5 3d
       -0.14338782 -0.080097124 -0.12559767 0.111939505
000190 35 3b b4 bd ec c4 bb bd 0f dd 9a 3d 6d be 88 bd
       -0.08800355 -0.09168419 0.07561695 -0.06676946
0001a0 58 97 91 bd 0a 1e 33 bd b7 0e 2a bd c7 cf 0c be
       -0.07108945 -0.04372982 -0.04151794 -0.13751136
0001b0 4a f9 18 3d 42 a3 18 be 49 12 19 bd 33 8e 00 3e
       0.037347116 -0.14906028 -0.037370954 0.12554245
0001c0 df 13 95 3d ea 67 a7 3c b2 57 ba 3d 81 20 50 bc
       0.07279181 0.020435292 0.09098758 -0.012703062
0001d0 90 d3 c8 bd 9f 92 f7 3d e6 ae 92 3c cf 47 21 be
       -0.09805977 0.12088513 0.017905664 -0.15750049
0001e0 c2 4f 28 bd fa 5a c9 bd e7 95 01 3e d4 f6 4d bd
       -0.041091688 -0.098318055 0.1265484 -0.05028422
0001f0 64 3c 1f be 93 f8 0e bd 72 06 79 3d 9e b8 f7 3b
       -0.15550381 -0.034905028 0.060797162 0.00755985
000200 07 e4 89 3c 42 c7 41 bc 57 0c ee 3c 5f c9 74 bd
       0.016832365 -0.011827292 0.029058618 -0.059762355
000210 dc e1 97 bd a1 a4 11 be 87 b7 f0 bd 97 95 f0 3c
       -0.07416126 -0.14222957 -0.11753755 0.029368205
000220 3a 55 e9 bd c8 32 b2 39 31 20 50 3c 17 a4 a8 bc
       -0.11393209 0.0003398864 0.0127029875 -0.020586057
000230 5f a2 fb bd 7a a3 fd 3c 49 f6 44 be 5e f8 81 3c
       -0.12286829 0.03096174 -0.19234575 0.015865501
000240 14 79 14 be db 9e 4f bd 6c 1c 79 3d cb 57 b0 bd
       -0.14499313 -0.050688606 0.06081812 -0.08610495
000250 eb ba e2 3d 90 a5 f4 bd 40 3d f8 bd 0f 4b 85 bd
       0.11070808 -0.11945641 -0.121210575 -0.06508457
000260 3a 23 bf 3c db 9c e6 3d 38 25 61 bd b0 5a 03 3d
       0.023332227 0.112603866 -0.054967135 0.03206891
000270 d3 eb 03 be cb 4d b3 bd f0 d4 84 3d a3 16 e5 bd
       -0.12882929 -0.08755072 0.06485927 -0.11185958
000280 16 2d 7b 3c 7a fe 0a 3e 8c ff 54 bd 71 11 bc 3d
       0.015330574 0.13573638 -0.05200152 0.09183014
000290 a7 25 88 bd 98 a5 e8 3d 2f 52 0f be 61 8f ac bc
       -0.066478066 0.113597095 -0.13996194 -0.021064462
0002a0 ca af cf bc e9 99 3f 3d 54 f2 67 3d a1 5c c8 3d
       -0.025352377 0.04677764 0.056627586 0.097832926
0002b0 b7 db 3d bd 32 10 15 bd c7 fd 44 3d c5 7d 9a bd
       -0.046352115 -0.0363924 0.048093583 -0.0754352
0002c0 01 05 ce 3d ed 25 db bd 8d cc 0e bd 97 1e 92 bc
       0.10059548 -0.10700593 -0.034863044 -0.017836852
0002d0 f7 0f df bc fc 26 30 3d ae b8 c2 bd 68 39 16 be
       -0.027229292 0.04300593 -0.09507881 -0.14670336
0002e0 14 5e 58 3d e2 98 c2 3c 02 e0 ee 3c d6 e5 f9 bd
       0.052824095 0.02375454 0.02915955 -0.12202041
0002f0 b2 b8 8a 3d fb 2c a2 bb 7a 13 93 bd b8 65 5e be
       0.06773509 -0.0049492097 -0.07181449 -0.2171849
000300 b3 82 cf 3d eb 2c db bd e4 e6 07 3d 61 d3 ab 3c
       0.10132351 -0.10701927 0.03317918 0.020974817
000310 69 5a 8a bd 04 db 4d 3d da 32 04 be 26 a7 06 3d
       -0.067555256 0.050257698 -0.12910023 0.03287425
000320 e4 65 bb bd a7 b7 7f bc ac 17 98 3c 6e d6 fb 3d
       -0.091502935 -0.015607751 0.018565975 0.122967586
000330 d1 09 8d bd c9 5f bd 3d dd 34 96 bc e6 63 8c bd
       -0.06886638 0.09246785 -0.018335754 -0.068549916
000340 a5 b4 00 be 5a 9c 07 be 3d 58 10 3e 59 72 13 bd
       -0.1256891 -0.13243237 0.1409616 -0.035997722
000350 95 3d ec 3b 8e 48 20 3d 5d ee c8 3d 30 4a fc 3d
       0.0072094896 0.039131694 0.09811089 0.12318838
000360 48 bd ef 3d ed 01 db bd 47 71 bd bc 6c eb ae bd
       0.117060244 -0.10693727 -0.023125304 -0.08540997
000370 bc e4 a8 bd 07 3d 0c 3d d6 bb 0a 3e 1a cf ec bd
       -0.082467526 0.034237888 0.13548216 -0.11562939
000380 84 e6 b2 3d af 42 99 bd bf 4d e6 bc 2e a4 ea 3d
       0.087353736 -0.07483422 -0.028113244 0.11457096
000390 a1 b6 05 bd c1 54 57 3c e8 a2 ce bd 30 a1 fb 3d
       -0.03264487 0.0131427655 -0.10089666 0.122866035
0003a0 b3 d9 98 bc 93 33 d8 bd 86 1c 2d 3d da 2d d2 bd
       -0.018658495 -0.10556712 0.04226353 -0.10262652
0003b0 3c 90 ea bd 32 10 10 3c 01 5e ea 3d 52 4d 27 bd
       -0.11453292 0.008792924 0.11443711 -0.040845223
0003c0 34 a1 5c 3e 25 42 63 3d a1 82 96 3b 1b f7 3d 3d
       0.21545869 0.055483002 0.004593209 0.046378236
0003d0 d5 4f 60 3d 9c 6b b3 3d e5 ad ed bd 12 23 7a 38
       0.054763634 0.08760759 -0.116054334 5.9637307e-05
0003e0 1d 6c de 3d 2d db 56 be c1 ce e5 be 80 13 c5 3e
       0.10860465 -0.20982046 -0.44884303 0.3849144
0003f0 f6 4a af bb 50 57 d1 3e ad 0b 7b be f0 ce 41 be
       -0.005349512 0.40886927 -0.24516173 -0.18926597

cnn.conv2.bias f4 [64]
000000 dc 8e 67 3d b5 a2 44 be 9b d7 a4 3d cc b8 46 3b
       0.056532726 -0.19202693 0.08048936 0.003032255
000010 ca b6 06 be 6c a7 6d 3d ba e0 01 be 4f 42 5b be
       -0.13155666 0.058020994 -0.12683383 -0.21412013
000020 6f 77 9f be ee 08 fa bd bf 7d bb 3d c3 b9 0f be
       -0.31145808 -0.122087345 0.091548435 -0.14035706
000030 33 f1 72 3d b4 17 12 bd 91 51 3e bd 6e a5 8f bd
       0.059312057 -0.035667136 -0.046464507 -0.07013975
000040 75 2e c9 bc f4 f7 bc bd a6 59 82 bd 41 87 70 bd
       -0.024558285 -0.09226981 -0.06364755 -0.05872274
000050 fd 07 2a be 53 4a cd bb 83 78 d5 3c 65 4f 01 be
       -0.1660461 -0.0062649637 0.026058441 -0.12627943
000060 39 cc 0d be b0 ee 88 3d 06 02 11 be b6 56 08 bd
       -0.13847436 0.06686151 -0.14160928 -0.03328582
000070 03 81 18 3c 91 31 72 bc c6 42 09 3c d1 05 16 3e
       0.009308103 -0.014782325 0.008377736 0.14650656
000080 85 3b 0b be 3e e9 ca bc 3d 75 b9 bd c2 8a d7 bd
       -0.13596924 -0.024769422 -0.090555646 -0.10524513
000090 64 e1 1f bd 1f 93 61 3d 5b 1d ad bd c3 f8 be bd
       -0.03903331 0.055071946 -0.08452865 -0.09324791
0000a0 89 89 13 be ef 5d 3d 3e 5b 53 2c 3e 7c 6a 49 3d
       -0.14407934 0.18492864 0.16828673 0.049173817
0000b0 01 6f 68 3b 5d 83 ba 3d c2 20 4a bd b2 e2 07 be
       0.0035466554 0.09107087 -0.049347647 -0.13270071
0000c0 b6 d5 9f 3c b3 f3 0e be 80 30 83 bd e7 5a d8 3c
       0.019511085 -0.13960151 -0.06405735 0.026410533
0000d0 0b c5 10 be d7 7a 3c bd 50 cb 10 bd b3 cf 2f bc
       -0.14137666 -0.046015587 -0.035350144 -0.010730672
0000e0 33 e7 53 3c e2 d3 48 ba 18 55 7c bd b8 e4 f3 bd
       0.01293354 -0.00076609675 -0.06160459 -0.11908859
0000f0 1d c2 0f bd 72 a1 84 bb 5e 1e de bd 6c 3d 9b bd
       -0.03509723 -0.004047566 -0.10845636 -0.07580075

rnn.0.rnn.weight_ih_l0 f4 [256, 64]
000000 e3 0f c1 be 8e 3d 88 bc d9 a0 69 bd b7 3a 9c 3d
       -0.37707433 -0.016630914 -0.057038162 0.076283865
000010 92 1b d9 3d 00 55 2d be c6 cd ec 3d e0 92 b0 be
       0.10600962 -0.16926956 0.11562686 -0.34487057
000020 77 7b 56 be 26 fa ee 3d ef 57 8d 3e 2e c1 71 be
       -0.20945536 0.11668806 0.2760615 -0.23608848
000030 82 56 eb 3d a0 4c ad bb e5 37 80 bd a0 f7 49 be
       0.114911094 -0.0052886754 -0.06260661 -0.19723368
000040 dc 86 b4 3e 50 9b 42 be c1 c1 26 bc 1a 40 a8 3d
       0.3525914 -0.1900456 -0.0101780305 0.082153514
000050 47 c0 3b be 33 76 eb 3c 67 af 65 3e 26 6c d4 3d
       -0.18335067 0.028742885 0.22430192 0.1037219
000060 53 66 76 bd e5 d2 f4 3e 0a 00 25 3d cc 7b 8c be
       -0.060156178 0.4781715 0.04028324 -0.274382
000070 92 46 15 be 53 ca 70 bb eb 49 49 3e f8 d7 ba 3e
       -0.14577702 -0.0036741688 0.19657104 0.36492896
000080 80 15 eb ba 44 79 79 3d 64 6d b4 bd 6e 81 cd bc
       -0.0017935485 0.060906664 -0.08809927 -0.025086131
000090 b6 6a 98 bd fa 1e 86 3e 31 02 ec 3d c4 92 b5 bd
       -0.074422285 0.26195508 0.115238555 -0.08865884
0000a0 d4 90 90 be ab 99 52 bc 20 1f 9e 3e 58 18 19 bf
       -0.28235495 -0.01285402 0.30883121 -0.5980277
0000b0 7f 92 ed 3e be 7f 58 be 6d 1f 50 3d e5 c8 8c 3d
       0.4640083 -0.2114248 0.05081122 0.06874255
0000c0 47 e6 be 3c 54 da 88 3c 7b 37 36 3b 9f 2c f6 be
       0.023303164 0.01670567 0.0027804065 -0.48080918
0000d0 52 fc a4 3c de 84 9d be 03 de f1 be d4 82 ee 3d
       0.020139847 -0.30765432 -0.47239694 0.11646047
0000e0 6b be 83 be 47 88 7f bd 59 b3 e1 bd 87 bd eb bd
       -0.25731215 -0.062385824 -0.11020536 -0.11510759
0000f0 b9 c3 a7 bc c4 21 12 be b9 34 5d bd 2c 52 9c bd
       -0.02047907 -0.14270693 -0.05400536 -0.076328605
000100 71 05 87 3e f0 a7 c9 bc 0b b8 8b 3d eb 83 af 3d
       0.2637134 -0.024616212 0.06822213 0.08570083
000110 2c 7a c6 bd ba 99 47 bd a1 06 25 bd c1 96 bb ba
       -0.09691271 -0.04873059 -0.040289525 -0.0014311896
000120 ce d6 00 be 98 fb f7 bd 55 2f 4d 3e 82 1d b1 be
       -0.12581941 -0.121085346 0.20037587 -0.34592825
000130 50 bd 39 bd a2 20 c2 3d f5 62 f8 bd 51 56 3a 3f
       -0.045346558 0.094788805 -0.121282496 0.7278796
000140 cc 03 50 3f 8c 2a c2 3e ae 92 75 be 78 d1 98 bd
       0.81255794 0.37923086 -0.23981735 -0.07461828
000150 d7 ac 62 be eb f3 ea bd e0 77 f2 3d 77 8d 9a 3d
       -0.22136246 -0.11472305 0.118392706 0.075465135
000160 f2 f8 2c 3d b2 5e 2b 3e 66 d7 e4 3d da 78 08 3f
       0.0422296 0.16735342 0.111738965 0.53309405
000170 a8 33 1f 3d 59 3e 5e bd 37 34 5e bf 07 c4 47 3d
       0.038867623 -0.054258678 -0.86798424 0.04877093
000180 00 94 6a ba 75 b5 45 3d f8 45 b8 3d cc 61 b8 bc
       -0.00089484453 0.048268754 0.089977205 -0.02250757
000190 77 3b ba 3c 05 21 6c 3e 45 81 43 3d 7d a7 01 3f
       0.022733433 0.23059471 0.047730703 0.5064619
0001a0 ea a6 2b bf 0f bb 9d be 4e 76 18 bf 4a 3d 03 3f
       -0.67051566 -0.30806777 -0.5955552 0.51265395
0001b0 31 db 0a 3f 2e a6 aa be e4 45 b0 3d 9a 59 4d 3d
       0.5424071 -0.3332991 0.086070806 0.05013428
0001c0 67 bf fa bc d8 f5 90 3d a8 83 53 bd 0f 5b f0 3d
       -0.030608846 0.07078141 -0.05163923 0.11736118
0001d0 09 bb 16 3d e2 d6 20 3e 3a 75 26 bf c0 a0 22 bb
       0.036799464 0.15706971 -0.65022624 -0.0024815053
0001e0 1a 6d e7 bd 5b cd 8e 3d 13 6f 14 3d c3 4a 3e 3d
       -0.11300106 0.06972762 0.03623874 0.046458017
0001f0 71 3d 74 3a ef 98 85 3e 86 8b ee bc 0c 57 d9 bb
       0.0009317017 0.26093242 -0.029119264 -0.0066326912
000200 9c 73 1f be 59 2e d3 bd 7f d1 a1 bd c1 9f 2a bd
       -0.15571445 -0.103115745 -0.07901286 -0.04165626
000210 e8 ac da bd 57 45 fa be 20 4c 88 3e 4f 39 6a be
       -0.106775105 -0.48881027 0.2662058 -0.22873424
000220 27 8c 34 3f f8 14 a9 bc 5a 32 05 bf 6d 30 92 3e
       0.70526356 -0.020639881 -0.52029955 0.2855257
000230 7e 21 d6 bd 14 53 8b 3d 7a ed 8e bc a0 f6 35 3b
       -0.10455607 0.06802955 -0.017447222 0.0027765408
000240 5d d4 2e be aa 14 d8 be 33 63 d7 bd b4 45 b2 bd
       -0.17073198 -0.42203265 -0.105169676 -0.08704701
000250 fb c2 d4 3d 4b 1a b6 3d 09 0b ad 3e 0a ea a5 bd
       0.10388752 0.08891734 0.33797482 -0.0810128
000260 04 f3 97 3d e5 6e df 3e c1 a1 53 bd db 43 67 be
       0.074193984 0.43639293 -0.051667932 -0.22584479
000270 b4 38 d4 3d bd 2e b7 3d e1 0b 08 3e b2 7d 6b 3d
       0.10362378 0.089444615 0.13285781 0.05749292
000280 64 ba 00 bd c5 eb 50 3d 8d e2 a3 bd be f6 c4 bd
       -0.031427756 0.051006097 -0.080021955 -0.09617375
000290 24 4f 44 be 02 23 8c 3e a2 50 78 bd 7e e2 b9 3e
       -0.19170815 0.2737046 -0.060623772 0.36305612
0002a0 1a d6 c7 bb f9 09 92 3e 73 e2 99 3e a8 84 c3 be
       -0.006098521 0.28523234 0.3005558 -0.38187146
0002b0 98 e0 81 3e e1 d5 c4 3b ec 75 ec 3d 36 8d da bb
       0.25366664 0.0060069417 0.11545929 -0.0066696657
0002c0 38 77 5b bd 77 d1 eb bd 3c c0 84 bb 0e 49 92 3c
       -0.053580493 -0.115145616 -0.0040512364 0.0178571
0002d0 c2 40 c1 ba a4 68 96 3e 77 56 4b be 18 a8 8c 3d
       -0.0014744031 0.2937671 -0.19857202 0.06867999
0002e0 e1 3d 4b be 92 e4 c4 bd 09 79 07 be 7b b1 7f 3d
       -0.19847824 -0.09613909 -0.13229765 0.062425118
0002f0 76 5b 28 be a8 d1 c0 bd 48 7f 93 3c ac 11 8c 3d
       -0.1644114 -0.09414989 0.018005028 0.06839308
000300 c1 bd 6f be b3 5b eb 3d e3 86 d5 bd 12 6d c2 bd
       -0.23412229 0.114920996 -0.10426118 -0.0949346
000310 22 85 99 3d 0d 2c a7 be 8e 97 9a bd 8d 30 3f 3d
       0.07496096 -0.32650796 -0.07548438 0.04667716
000320 8d f1 8b be 92 cc de bd 67 b2 14 3e 9a ed 1e bd
       -0.27332726 -0.108788624 0.1452118 -0.038800813
000330 00 e8 18 3d b8 18 c1 3c a7 33 13 bd 3a cd 1d be
       0.037330627 0.023571357 -0.03593793 -0.15410319
000340 b9 62 6c 3e ea 04 c1 bd cd 80 24 bd 80 ca 9f 3c
       0.23084535 -0.094247654 -0.040161896 0.01950574
000350 7e f0 c4 3c 28 60 e8 3d 12 eb d1 3d 0c 04 67 3c
       0.024040457 0.11346465 0.10249914 0.014100086
000360 26 ca 53 3d 06 08 35 be 69 85 ad 3d 61 2f dd bd
       0.051706456 -0.17678842 0.084727116 -0.108000524
000370 68 9a 86 3e cb 4a 9f bc 05 2a c8 bf 9d ee a1 3e
       0.26289678 -0.019444844 -1.5637823 0.3162736
000380 40 3d 50 3d e5 d2 ce 3d ee 44 3e 3d 6a 3a 3d 3d
       0.050839663 0.10098819 0.046452455 0.046198286
000390 07 b6 d6 3c e4 90 84 be c4 a0 e1 3d 9d 2d 84 bd
       0.026209844 -0.25891793 0.11016992 -0.064540125
0003a0 ec ba 0d be e9 6b e1 3d 51 ca 16 bf 8b 65 26 3f
       -0.13840836 0.1100691 -0.5890246 0.6499869
0003b0 1b 5f dc bd a1 7e e6 be 9a d5 2d bc b6 3f 9c bd
       -0.107603274 -0.45018485 -0.010610009 -0.076293394
0003c0 d9 37 f7 bc ee a3 ac 3c b3 cd 9f 3d bb 88 8e 3e
       -0.030177997 0.021074262 0.07802906 0.27838692
0003d0 94 69 f2 bd ea 2b 7a 3d bb 42 30 be 60 a3 b9 bc
       -0.11836544 0.061077036 -0.17212956 -0.022660911
0003e0 a8 8b 2b 3d 54 59 c5 3d 86 b1 8e bc 3d 65 9f 3b
       0.041881233 0.096361786 -0.017418634 0.0048643635
0003f0 0b 1b 24 bb a3 e2 11 3e 49 38 fc bc b1 6f 70 bd
       -0.0025040533 0.14246611 -0.030788558 -0.058700267

rnn.0.rnn.weight_hh_l0 f4 [256, 64]
000000 78 ac 3b 3f 70 1c cc 3c 85 ce 04 3e 4a 6c da 3e
       0.7331004 0.024915904 0.12969406 0.42660743
000010 ae 1a 4a 3d af 59 d3 3d e2 8d 9e bd 05 e0 95 3d
       0.04934185 0.1031984 -0.07741906 0.07318119
000020 4e 49 45 3e 46 63 8a be 28 5d d7 bb 72 5a dc 3d
       0.19266245 -0.27028865 -0.0065723844 0.107594386
000030 b9 4e 05 3d 32 12 fd bd 7e dc e5 3e 0b a0 05 3e
       0.03254578 -0.12356986 0.44894785 0.13049333
000040 d1 1f 01 3f 53 b5 52 3d 9c 64 8c bd 21 8b bb 3c
       0.50439173 0.051442456 -0.06855127 0.02289349
000050 47 d8 bc 3c bf 88 46 be 57 66 ef 3e 22 fb db 3d
       0.023052348 -0.19388102 0.46757767 0.10741259
000060 7f ba fc bd 4e 18 b1 be df 71 d8 bc 0b 39 fc be
       -0.12340259 -0.34588856 -0.026421485 -0.4926227
000070 4c 05 79 be 84 bf bf bd d7 13 1b bf 35 4b 80 be
       -0.24318427 -0.093627006 -0.6057715 -0.25057378
000080 c7 f0 0c bf 08 4e bc 3e 93 ea 66 3d b3 6e 2c 3c
       -0.550549 0.36778283 0.05637605 0.01052444
000090 82 0a dc 3e e9 ef 08 be bf af c9 3e 81 4b c7 be
       0.42976767 -0.13372768 0.39391896 -0.38924792
0000a0 59 e4 3a 3e 93 40 7d be 70 25 89 be 3e 6a 04 be
       0.1825117 -0.24731664 -0.26786375 -0.12931153
0000b0 0a 70 0d 3f 15 a6 3e bd 90 d8 0f bf 3e 1e 86 3c
       0.55249083 -0.046545107 -0.56189823 0.016371842
0000c0 02 9c 97 bb 44 c1 ef 3b 55 15 83 be 08 04 40 3e
       -0.004626752 0.00731674 -0.25602213 0.18751538
0000d0 69 07 c9 3d b6 3f 8f 3e 72 66 a2 be 6c f1 1a 3d
       0.098158665 0.27978295 -0.31718785 0.037827894
0000e0 e7 e2 61 3e b2 cf 38 be 93 8a d8 be 7d 0a fc 3d
       0.22059213 -0.1804798 -0.42293224 0.12306688
0000f0 7e 6a 84 3d 25 48 ab be 3f 80 74 bc 36 25 97 be
       0.06465624 -0.3345348 -0.014923154 -0.29520577
000100 25 64 93 be fb 8e f9 bd 66 6c a9 bd 00 68 30 3d
       -0.28787342 -0.121854745 -0.082726285 0.043067932
000110 9c 34 60 3e 07 87 81 be 8b 7e 46 be c3 c4 c8 be
       0.21895069 -0.2529833 -0.1938421 -0.39212617
000120 1b 0e 33 3d 1e 98 48 be 50 a1 e0 bd 43 aa 7f bd
       0.043714624 -0.19589278 -0.10968268 -0.062418234
000130 dc f5 19 3e 46 66 86 3d 93 fd 0f 3e bd 95 8d bd
       0.15035194 0.06562476 0.14061575 -0.06913326
000140 29 59 26 3f 5a 19 0a 3e 46 42 b7 be 67 38 c9 be
       0.649798 0.13486233 -0.3579275 -0.39300844
000150 93 e6 14 be 23 f3 3e 3d d9 14 30 bd 89 90 ae 3d
       -0.14541082 0.046618592 -0.042988632 0.08523662
000160 59 2a 85 3e 7f f8 2d 3e 19 23 0f 3d 39 08 f2 3d
       0.2600887 0.16989325 0.03494558 0.118179746
000170 87 1c 6a 3e 3b e0 17 be 9c f8 58 be 5c 19 4a 3e
       0.22862445 -0.14831631 -0.21188587 0.19736236
000180 d2 7a 6a be 63 46 a1 3d 90 eb 50 bd f3 da 21 3e
       -0.22898415 0.07874753 -0.0510059 0.15806179
000190 3b 0d 03 3e ad a2 1c 3d f0 0e cf 3e 5e c1 68 be
       0.12798016 0.038241077 0.40441084 -0.22730014
0001a0 a2 07 0a bd 0a 5a 3c be 07 77 60 3e 81 7b f3 3d
       -0.033698685 -0.18393722 0.21920405 0.11888791
0001b0 0d a3 0a bd 3b 02 76 3e 9c 76 a2 3d 42 db 69 3e
       -0.033846904 0.24024288 0.07932779 0.22837546
0001c0 0b 49 5f be 50 1b 18 3e c6 79 02 be d5 c0 63 3e
       -0.21805207 0.14854169 -0.12741765 0.22241528
0001d0 72 fb cd bd d6 6f 93 3e f0 52 11 3e 59 2c 19 be
       -0.10057725 0.28796262 0.14191794 -0.14958324
0001e0 db 49 05 3e e4 23 6a 3e 71 cb 26 bf 48 78 c5 3d
       0.13016455 0.22865254 -0.65154177 0.096420825
0001f0 ec 00 6d be 1a 1f 71 bd 21 af f3 bd f3 5b 40 3d
       -0.23144883 -0.05886755 -0.118986376 0.04696269
000200 e2 1e 5e 3e 93 99 b7 be 3c 3c 54 bd bb 5f e4 3e
       0.21691468 -0.35859355 -0.051815256 0.44604287
000210 65 a2 2c 3f 98 ff 80 be c1 5a f6 3c 20 b0 21 bf
       0.67435294 -0.25195003 0.030072572 -0.6315937
000220 aa 0e bd be 57 52 ac be 9f e8 58 3e 99 5c ad 3e
       -0.3692525 -0.3365657 0.21182488 0.3385971
000230 58 06 32 3c 4e 7a 7c bd 68 6e 5d 3f 01 6b ee 3c
       0.01086577 -0.061640076 0.8649659 0.029103758
000240 65 b9 82 3f 58 7c 48 be b8 6d d0 be 0f 3e d8 3e
       1.0212828 -0.19578683 -0.4070871 0.42234847
000250 27 99 05 3f 23 aa eb bc 2c 3c c9 be e7 84 bf 3e
       0.52186817 -0.028767651 -0.3930372 0.37406084
000260 e7 95 a4 bd 1c dd 2a be 51 19 1d 3f de 97 21 be
       -0.08036404 -0.16685909 0.61366755 -0.15780589
000270 7c 73 c1 3e 59 e6 e4 be a0 48 a5 bd 6f 2f d2 bc
       0.3778342 -0.4470699 -0.08070493 -0.025657384
000280 98 fb 03 bf 9e 87 d1 3e 63 5b b6 be 95 d4 73 bf
       -0.51555777 0.4092378 -0.35616598 -0.9524625
000290 ef 11 2a 3d d5 38 a2 be fb d4 5a 3e 8e 80 f1 3e
       0.04152101 -0.31683984 0.21370308 0.47168392
0002a0 ed 9a 7a be dc 15 2c be 38 a7 e7 be 9b cc ce 3e
       -0.24473162 -0.16805214 -0.45244765 0.40390477
0002b0 12 64 d0 3e 98 f5 80 be 99 f7 38 bf 19 fe 8a 3d
       0.40701348 -0.25187373 -0.72252804 0.067867465
0002c0 c1 e7 42 be 79 ac 2b be 49 d4 54 be 65 06 ef 3d
       -0.1903372 -0.16765012 -0.20784105 0.116711415
0002d0 c0 60 34 be 3c 06 87 3e c4 ab 92 be 51 0a 79 3e
       -0.17615032 0.26371944 -0.28646672 0.24320342
0002e0 6b f3 56 be db 50 15 3d 26 cb 5b be f3 6d be be
       -0.20991294 0.036454063 -0.21464214 -0.3719326
0002f0 01 b1 98 bd 94 87 11 bf a3 9c b4 3d 9d e7 e4 bd
       -0.07455636 -0.568475 0.088189386 -0.11176989
000300 c3 82 9c 3c f9 3f ab 3e 34 26 0a be 38 70 0a 3e
       0.01910532 0.33447245 -0.13491136 0.1351937
000310 09 09 d3 bd 7d d2 7d 3e 60 35 32 be d9 ef b5 bd
       -0.10304458 0.24787326 -0.17403173 -0.08883638
000320 19 f8 ec 3e 40 eb 6a be 34 a7 24 3e 14 d9 83 be
       0.46283033 -0.22941303 0.16079408 -0.25751555
000330 3f 34 5d be 1a c0 61 bc 7f a4 b1 be 74 c2 b1 3d
       -0.21601962 -0.013778711 -0.34695813 0.08679667
000340 e2 b0 b0 3e 54 b0 37 be 0c 6d 41 bc ce 30 41 be
       0.3450995 -0.17938358 -0.011805784 -0.18866274
000350 f7 40 c1 be 2f 3a c5 3e 41 1e b9 be 18 36 1f be
       -0.37744877 0.38520953 -0.36155894 -0.15547979
000360 30 f0 ac bd bc 1c 14 3e 56 88 40 be c8 1b 47 be
       -0.0844425 0.14464086 -0.18802008 -0.19444191
000370 5f d5 9b 3e 26 4c 6c 3e 82 bf f2 3d fc f3 66 3e
       0.30436227 0.23075923 0.118529335 0.2255401
000380 ba 28 a3 3d d2 dc d8 3e 1f 44 3f 3e 79 05 30 be
       0.07966752 0.42355973 0.1867833 -0.17189588
000390 d2 d8 4b 3e 3c ad ae bd eb 32 9d be c2 57 02 bf
       0.19906929 -0.085291356 -0.3070291 -0.5091516
0003a0 3b 23 83 3d 72 29 75 be 9d 13 2d 3e d7 1f c7 3b
       0.06403204 -0.23941591 0.16902013 0.0060767937
0003b0 92 6c 86 3d 03 1d c0 bd eb 2e a2 bc eb 05 2b be
       0.06563677 -0.093805335 -0.019797763 -0.16701476
0003c0 f8 54 48 bd a3 bc ea 3c ba e0 86 3d f7 cb ce 3d
       -0.048909158 0.028654402 0.06585832 0.10097497
0003d0 e3 39 2c be 87 c2 f4 3d 29 2c 6c be a2 08 af bd
       -0.16818957 0.11951166 -0.23063721 -0.085465685
0003e0 3a 60 4b be 74 29 87 be 7f c9 e4 be b6 9a 2c bc
       -0.19860926 -0.26398814 -0.4468498 -0.010534933
0003f0 34 9c 8d be e0 bf 0f 3e 7e fa 18 be 9b a1 e4 be
       -0.27658236 0.14038038 -0.14939305 -0.44654545

rnn.0.rnn.bias_ih_l0 f4 [256]
000000 6c 03 08 3e 99 d7 9b bd ad fa 09 be b6 6f 24 3d
       0.13282555 -0.07609481 -0.13474531 0.0401456
000010 e0 82 ac bc dd 5f 42 3e 17 4f 02 be e2 a0 85 3e
       -0.0210585 0.18981881 -0.12725483 0.26099306
000020 33 0e 18 3f f2 af 8c 3d b7 af 56 3d ef 3c 66 39
       0.59396666 0.068694964 0.05241367 0.00021957209
000030 51 a4 49 3e 1a 81 b3 3e 6e 25 7b 3e 45 fc 20 3d
       0.19691588 0.35059434 0.24525997 0.039303083
000040 07 39 a3 3e 55 cd 06 3f bb bd 37 3e fd 0d 7f 3d
       0.31879446 0.5265706 0.1794347 0.0622692
000050 e3 01 a2 3d 0a 28 89 be 42 1d b6 3e c2 99 1f 3d
       0.07910516 -0.2678836 0.35569197 0.038964994
000060 f7 06 de bd 4e 03 fc 3e ca 84 15 3d 2e 20 c1 3e
       -0.10841172 0.4922127 0.03650359 0.37719864
000070 98 3e c3 3e 59 42 bb bd 90 d5 6b bc 23 8a 79 be
       0.38133693 -0.09143514 -0.014394179 -0.24369101
000080 6b 45 22 3f 48 95 65 3d 8d dc b1 3e 17 c2 a4 3e
       0.63387173 0.05605057 0.3473858 0.3217933
000090 c0 45 90 3e 37 9c 29 3e 42 11 23 3e c2 ea 26 3f
       0.28178215 0.16563497 0.15924552 0.6520196
0000a0 10 c2 e8 3d fa 0e 47 bd 51 35 b9 bc 96 44 5e 3e
       0.113651395 -0.048598267 -0.022608431 0.21705851
0000b0 c5 bc 06 3e a8 8e 05 be 12 97 71 3e 00 bc 9c 3d
       0.13157947 -0.130427 0.23592785 0.07653046
0000c0 76 56 da 3e 9c cd 56 3e b6 0c ca 3d d5 65 c4 bd
       0.4264409 0.20976871 0.09865706 -0.095897354
0000d0 d8 f1 86 3e 5c 1f bd 3c 36 a1 21 bc 1b 17 87 bd
       0.26356387 0.023086242 -0.009865096 -0.06596204
0000e0 96 c8 90 3e 7a 58 85 3e e7 c6 10 be 11 2a 1c 3a
       0.28278035 0.26044065 -0.14138375 0.0005957196
0000f0 ce 78 11 3f be 59 a7 3c 94 ab 7c bd 01 97 ca 3d
       0.5682496 0.020428535 -0.061687067 0.09892083
000100 96 88 0d 3e 15 a2 0a be a3 8c 4c 3d 5d 4a 9d 3e
       0.13821635 -0.13538392 0.04993881 0.30720797
000110 cd 82 25 bd 25 9b bc ba d2 8f 57 bd 97 5e 5c 3e
       -0.040407944 -0.0014389498 -0.052627392 0.21520458
000120 48 21 28 bd 93 d9 53 be e9 45 25 3e 0a f6 4b be
       -0.041047364 -0.20688467 0.1613995 -0.19918075
000130 6e 4c 89 3e 45 c2 e8 be 1b 09 cb 3c 42 92 ac 3d
       0.26816124 -0.45460716 0.024784615 0.08426334
000140 65 20 ff bd 71 29 05 bd d1 6c 1b 3e 35 e9 e4 3d
       -0.12457351 -0.032510225 0.15178229 0.11177293
000150 99 14 15 3e 8e 11 c5 bd 58 d6 dd bd 4b 10 26 3e
       0.14558639 -0.09622489 -0.108318985 0.16217153
000160 37 60 0c be 54 3c 42 be a4 39 f3 3c 26 82 99 3d
       -0.13708578 -0.18968326 0.029690571 0.07495527
000170 79 be f6 bd 8d e3 b4 bd bc 71 b5 bd 17 81 20 3e
       -0.120480485 -0.08832464 -0.08859584 0.15674244
000180 2d 64 eb 3b 6e 6f e6 3d 0a 6b a6 3c ee 7c 58 bd
       0.0071835727 0.11251722 0.020314712 -0.052853517
000190 c4 98 01 be d6 0d 65 be 16 05 ac 3e 35 75 c4 bd
       -0.12655932 -0.22368559 0.3359763 -0.09592668
0001a0 69 e7 bc 3e 15 c6 66 3c b3 ae c2 3e 65 10 a2 3d
       0.36895302 0.014085312 0.3802391 0.07913283
0001b0 ea c7 6c bc a3 ec 9d 3c b0 32 99 be 84 c5 48 bd
       -0.01445196 0.019277876 -0.29921484 -0.04901649
0001c0 f7 98 cd be f3 ab 8e bd 83 88 3e be af 2c 0d bd
       -0.40155765 -0.069663905 -0.18606763 -0.03446644
0001d0 b8 62 7d bd aa 57 88 bc d4 e5 af bc 36 04 df 3b
       -0.061861724 -0.016643364 -0.021471895 0.006805922
0001e0 6e 31 47 3e 41 88 0b be e0 22 41 3e a4 10 1a be
       0.1945245 -0.13626195 0.1886096 -0.1504541
0001f0 62 55 43 3d 5e f5 02 bf cd 3e d8 bc d6 02 5c 3e
       0.04768885 -0.5115565 -0.026397133 0.21485457
000200 b5 3c 21 3e ac 3b 76 bd 36 ce b6 3d 9e ce db bd
       0.15745814 -0.0601155 0.0892605 -0.107327685
000210 56 53 0c be 35 f8 09 3e 4b d6 c6 3d 20 e3 56 3d
       -0.13703665 0.1347359 0.09708842 0.052462697
000220 1a 38 85 3d f8 25 df bc b6 e0 84 bd 91 f4 50 bd
       0.06504841 -0.027239785 -0.06488173 -0.051014487
000230 81 2b 07 bb 46 fe 84 3d 37 c8 bd 3b 54 64 8f bc
       -0.0020625296 0.06493811 0.0057916897 -0.017503895
000240 37 a2 9d 3c 5b d7 42 be f5 9c f0 3a d6 4d e3 3d
       0.01924239 -0.19027464 0.0018357324 0.110988304
000250 d1 24 cd bd 1e 6f 05 be 1e e1 af bc 65 8b 5d bd
       -0.10016788 -0.13030669 -0.021469649 -0.054088015
000260 d9 1e 51 bd dc b7 a6 bd 88 8c a7 3d 1b 77 0c be
       -0.05105481 -0.08140537 0.08181101 -0.1371731
000270 8d 45 2a 3e 53 19 a5 3b 93 3c c1 bd ca 81 27 3e
       0.16628094 0.0050384193 -0.09435382 0.16358104
000280 a5 6c cd 3d 54 a1 0b be 16 08 82 3d 8d 58 e4 bd
       0.10030488 -0.1363576 0.063491985 -0.11149702
000290 ba 25 18 3e 6d 77 51 bd 13 2b 76 3c 60 eb 4f 3d
       0.14858142 -0.051139284 0.015024918 0.05076158
0002a0 48 68 ed 3c 4d cd 44 3c c7 17 94 bd b2 2b f4 3d
       0.02898039 0.012011838 -0.07231098 0.11922397
0002b0 a3 c1 28 be e4 15 6e bd c8 49 bd bd 1e e1 01 be
       -0.16480117 -0.058126345 -0.09242588 -0.12683532
0002c0 cf fe 1b 3e ee 60 c7 bd ed 77 cb bd 0c 64 88 bd
       0.1523392 -0.09735285 -0.099349834 -0.066597074
0002d0 f6 d5 dd 3d 53 0e 40 bd 97 72 f1 bc ee 37 36 bc
       0.108318254 -0.04688866 -0.029473586 -0.011121733
0002e0 e6 1e 0a be dd 0d 0e be ca d6 9a bd 75 04 8c bc
       -0.1348835 -0.13872476 -0.07560499 -0.017091969
0002f0 2e 37 3b be 7b e9 1f 3e 3c b6 0e bd b6 8b 82 b9
       -0.18282768 0.1561641 -0.03484176 -0.00024899625
000300 8f d6 ba 3d fd b2 8c bd a8 01 62 be b0 8f 82 ba
       0.09122955 -0.06870077 -0.22070944 -0.0009961035
000310 d1 17 2a 3c f0 b5 12 3e 9e a6 c9 bd ec c3 51 bd
       0.010381655 0.14327216 -0.09846233 -0.051212236
000320 e6 0d c6 3e f6 16 d4 3d 63 44 4a bd 28 84 53 3d
       0.3868248 0.10355942 -0.049381625 0.051639706
000330 7b ef 03 3c 5f e2 d8 3e 38 9f a7 3e c3 bc a6 3d
       0.008052702 0.42360207 0.32738662 0.08141472
000340 70 d5 8d 3e 59 75 08 3f 9b 7b ba 3d 65 ce 10 3e
       0.27701902 0.5330406 0.09105607 0.14141233
000350 13 3a 12 bd b0 a1 0d be c5 15 db 3d 31 63 56 3d
       -0.035699915 -0.1383121 0.106975116 0.05234069
000360 4e 0d 52 be 1b 3b ec 3e 98 54 32 be 54 23 9d 3e
       -0.20512888 0.46138844 -0.17415082 0.30691016
000370 78 1b 8a 3e af 64 d2 bd 92 8f 8f bd 6c 80 8a be
       0.26974082 -0.1027311 -0.07009806 -0.27051103
000380 a3 a9 23 3f 96 7c 39 3e 12 03 ba 3e 82 26 69 3e
       0.6393072 0.18113932 0.36330467 0.22768596
000390 f3 8d 93 3c 69 85 d5 3d 22 e1 06 3e cb 9c a5 3e
       0.018012023 0.104258366 0.13171819 0.32346186
0003a0 95 3a 44 bd 8c 02 2d be db 2b 04 be 64 fe 81 3d
       -0.04790743 -0.16895503 -0.12907355 0.06347349
0003b0 e9 87 54 3d 82 8c 8f 3d 46 3f d1 3e e0 53 92 3d
       0.051887427 0.070092216 0.40868586 0.07144904
0003c0 8e db a0 3e 53 e3 3a 3d 7a d5 d1 3d 0e f0 65 be
       0.31417507 0.04562695 0.102457955 -0.22454855
0003d0 a5 a8 0b 3e fa d5 cd 3c 92 48 13 be f5 4f a3 3d
       0.13638552 0.025126446 -0.14383152 0.07974235
0003e0 16 3d 92 3e 79 2f 38 3e 86 e8 cf bd 75 5a 97 3d
       0.2856223 0.1798686 -0.10151772 0.073903
0003f0 81 df 15 3f 63 48 f0 3d 24 ce e3 3b ba 60 36 3e
       0.58544165 0.11732557 0.006952064 0.17810336

rnn.0.rnn.bias_hh_l0 f4 [256]
000000 df c5 26 3e a4 4c 38 be 42 20 2b 3d 87 d4 c4 3c
       0.1628642 -0.17997986 0.04177881 0.024027122
000010 bd a8 3d bd d3 f9 91 3d 68 31 1f bc 34 ff 0a 3e
       -0.0463035 0.07127728 -0.009716369 0.13573915
000020 0c 8e 0e 3f 84 6d cb 3d d8 cf c4 3d 46 d2 56 bd
       0.55685496 0.09932998 0.096099555 -0.052446626
000030 68 5c 99 3e 40 58 b6 3e ec f9 69 3e af a2 0d 3e
       0.29953313 0.35614204 0.22849244 0.1383159
000040 37 53 83 3e ba b9 09 3f 4e f5 97 3e cf 2c 8b 3c
       0.25649425 0.5379902 0.2967934 0.01698914
000050 b1 be 18 bc ad 64 5a be e0 1e 99 3e 3d 2c 39 3e
       -0.009322808 -0.21327467 0.29906368 0.18083282
000060 a4 b2 b4 bd 76 31 ca 3e 4c 95 44 3d e6 e9 92 3e
       -0.088231355 0.3949086 0.047993943 0.28694075
000070 94 07 ae 3e 2c d0 8b 3d 15 1c 1b 3d fe f2 18 be
       0.33990157 0.06826815 0.037868578 -0.14936444
000080 2c 9f 28 3f 35 de 07 3d 33 04 80 3e ae c4 37 3e
       0.65867877 0.033170898 0.25003204 0.17946121
000090 a0 ee 61 3e 18 ca 1f 3e 1d 3c 5b 3d bf 10 28 3f
       0.22063684 0.15604436 0.053524125 0.6565055
0000a0 6b 13 66 3d ca d0 07 bd b4 61 f8 bc d7 fb 64 3e
       0.056170862 -0.0331581 -0.030320026 0.22361694
0000b0 42 7e 93 3e ed 07 93 3d c2 1c be 3e f9 74 5b bd
       0.28807265 0.07179246 0.37131315 -0.05357835
0000c0 f2 df 52 3e ae 35 b8 3d 84 ae b6 3d fe ab 36 be
       0.20593241 0.089946136 0.08920005 -0.17839047
0000d0 d7 8c ab 3e d8 22 e0 3c c8 69 91 bd 46 07 d7 bd
       0.3350589 0.027360365 -0.07100254 -0.10499434
0000e0 f2 67 9e 3d 37 2d 87 3e d8 fd 24 be f3 08 0a be
       0.0773467 0.26401684 -0.16112459 -0.13479976
0000f0 2c 2e 02 3f 01 76 98 bd 2b 9d a9 bd 5f 79 da 3d
       0.508517 -0.074443825 -0.082819305 0.10667681
000100 03 c8 4a 3e 55 15 b7 be 83 83 14 3e e1 6b 4f 3e
       0.19802861 -0.35758463 0.14503293 0.20255996
000110 20 49 71 bd 0e 83 d8 3d 84 6f 12 be 1c c6 b0 3e
       -0.058907628 0.10571872 -0.14300352 0.34526145
000120 8b 73 0d bc be dd 94 be 4e ba 4b 3e e4 a2 59 be
       -0.008633505 -0.29075426 0.19895288 -0.21253544
000130 23 d9 76 3e 83 b2 05 bf 19 a8 0c 3e 63 d2 fd bd
       0.24106269 -0.5222551 0.13735999 -0.12393644
000140 e3 27 2e 3d 23 23 87 be d6 4a 59 3e 41 af fc 3b
       0.042518508 -0.26393995 0.21219954 0.0077113216
000150 f8 91 e3 3d c0 8a a2 bc e5 2d ae 3d bc c4 44 3e
       0.11111826 -0.019841552 0.085048474 0.19215673
000160 e3 b1 f7 bd 89 bc ab be 84 6a 3b 3e 2a 45 a6 3c
       -0.12094476 -0.33542278 0.18302351 0.020296652
000170 8e 82 45 be 2d ab 21 be 5d 53 92 3a db 94 4b 3d
       -0.19288084 -0.15787955 0.001116376 0.049702507
000180 16 73 c9 bd f2 47 63 3e 5a 99 5c 3e cb f9 3f bd
       -0.09836404 0.22195414 0.21542874 -0.04686908
000190 16 2d 88 be e8 39 90 be bc ef 68 3e e1 59 b6 bd
       -0.26596898 -0.2816918 0.22747701 -0.08903862
0001a0 7c f0 b6 3e 88 08 48 3e 9f 61 56 3e b5 b3 85 3d
       0.3573035 0.19534504 0.20935677 0.06528417
0001b0 18 1a 39 bd 5a 8a 3e 3d e9 18 97 be 31 53 1a be
       -0.0451909 0.04651866 -0.29511192 -0.15070798
0001c0 61 f2 9d be 00 da bb bd 0e 4f 82 be 54 1f 0c bd
       -0.30848983 -0.091724396 -0.2545094 -0.034209564
0001d0 c6 1d 82 bd 25 20 e1 bc 74 fe 0e be 72 6d 0d 3e
       -0.06353335 -0.027481148 -0.13964254 0.13811281
0001e0 8b 42 10 3e 75 56 24 3d 7a 8d df 3c c7 90 77 be
       0.14087884 0.040121514 0.027289141 -0.24176322
0001f0 a6 35 4c 3c 57 a5 06 bf ff ed e2 bc 6e 5e 3d 3d
       0.012463963 -0.5259604 -0.027701376 0.046232633
000200 84 db 84 bd 5d 77 9e 3d 80 2f 02 be b3 c2 65 3d
       -0.06487182 0.077376105 -0.12713432 0.056093883
000210 14 a0 0f be 3a 72 ee 3d 11 9a be bd c2 a8 0a be
       -0.14025909 0.11642881 -0.093067296 -0.13540938
000220 33 02 be 3c 18 5f 8a bd 1c 7e a7 bd 09 5a f2 3d
       0.023194408 -0.06756419 -0.0817835 0.11833579
000230 54 6a 81 3c 49 84 1a 3d bf 67 5a bc 44 f4 8c bc
       0.015797772 0.037723813 -0.013330399 -0.017206319
000240 0f 56 4c 3d 30 cf 14 be 5a 03 4c 3e 97 88 80 3d
       0.04988676 -0.14532161 0.19923154 0.062760524
000250 7f ce 0e 3c 52 c9 3f bc 60 21 ee 3d 26 00 9c 3d
       0.008716225 -0.011705713 0.116274595 0.07617216
000260 aa 08 19 bd 81 15 06 be cc 3e 22 bd b4 66 8a bd
       -0.03736178 -0.1309414 -0.03961067 -0.0675787
000270 e1 44 a0 3d 8d 60 0e 3e b9 46 bf 3d 42 18 66 3c
       0.078256376 0.13904019 0.09339661 0.014043869
000280 9d cc 5e 3d 30 60 8b 3c 2d bb ae 3d 83 b0 63 bc
       0.054394353 0.01701364 0.08531795 -0.013897064
000290 ce a4 57 bd ba 86 60 be 3c 3d 3e 3d 05 c5 f7 bd
       -0.052647404 -0.21926394 0.046445116 -0.12098125
0002a0 cf ab 13 be a1 ab fa bd b8 9e 77 3c ba 2f 44 bd
       -0.14421009 -0.12239767 0.015113525 -0.047897078
0002b0 11 a8 2a bd 81 d6 9c bd a5 4e 83 3d f2 35 3a be
       -0.041664187 -0.07658101 0.06411485 -0.18184641
0002c0 fc d7 fd 3d df 7d 37 3d 54 8d eb 3c 38 7d c7 bd
       0.123947114 0.044797774 0.028753914 -0.097406805
0002d0 b0 92 35 3e 3f 3b 63 3d 86 6a 16 3d 2b 68 0d 3e
       0.17731738 0.055476423 0.036722682 0.13809268
0002e0 7c 8b 75 bd 0d ec 7c bd 61 ff 33 bd 33 0c 54 3d
       -0.059947476 -0.061748553 -0.04394472 0.051769447
0002f0 22 82 a6 3c 08 a7 22 bc 9d 48 ca 3d ba eb 1a 3e
       0.020325724 -0.009927519 0.09877131 0.15128985
000300 a0 2e 50 3e 0f 4f 06 be e2 24 1e bd 0c 79 cb bd
       0.20330286 -0.13116096 -0.038609393 -0.09935197
000310 e9 81 67 bd d8 d6 a2 3d 33 ec e0 3b 0a 70 a6 bd
       -0.056520376 0.079511344 0.0068640946 -0.081268385
000320 38 3e a4 3e df 27 bb bc c6 2f a0 3c 01 43 da 3d
       0.3207872 -0.02284616 0.01955403 0.10657311
000330 3f 5e aa 3d aa ef 9f 3e fd bf 51 3e b8 b7 c0 3d
       0.08318757 0.31237537 0.20483394 0.094100416
000340 8f 47 1d 3e e5 51 bb 3e 21 58 54 3e 41 36 a4 3d
       0.15359329 0.36585918 0.20736744 0.080181606
000350 ca 99 d0 3c 05 0e 81 be 99 7d 86 3e f9 c2 a6 bc
       0.025463957 -0.2520601 0.26267698 -0.020356642
000360 ee 7a 2d bd 0c d4 fa 3e aa b2 39 bd e7 df f5 3e
       -0.042353563 0.48989904 -0.045336403 0.48022386
000370 5a 93 aa 3e a5 14 05 3e c6 93 bd 3c b7 04 8f be
       0.33315545 0.12996157 0.023141753 -0.27933285
000380 a1 30 38 3f ff 09 e1 3d 6b 96 90 3e 6e 9f a1 3e
       0.719492 0.10988235 0.2823976 0.31566948
000390 95 b3 05 3e f3 10 dd 3d 16 52 e2 3d 62 9c f7 3e
       0.13056786 0.107942484 0.11050813 0.48361498
0003a0 d4 63 6f bd 8b fe 85 bc 05 fd e3 bd c7 08 58 bc
       -0.058444813 -0.016356727 -0.11132244 -0.013185686
0003b0 05 df b0 3d a9 b4 a4 bd 90 88 74 3e 2e 88 9f bb
       0.086362876 -0.08042271 0.2388022 -0.004868529
0003c0 52 3f cb 3e d7 0b 28 3e 75 07 31 3c ef e7 00 be
       0.39696747 0.16410767 0.010805001 -0.12588476
0003d0 7c a1 10 3e ee 78 ba bd ca 5c 0e be 83 20 12 be
       0.14124101 -0.09105097 -0.13902584 -0.14270215
0003e0 8e a2 63 3e cb 75 03 bd 88 a6 f1 bd 49 3c a2 bb
       0.22229978 -0.032094758 -0.117993414 -0.004951034
0003f0 2f 88 d6 3e e2 dc 4b bd 54 46 e1 bd e1 58 23 3e
       0.41900775 -0.049771197 -0.10999742 0.15951873
